navier_stokes_model.pth (torch, 81717 bytes, 8 tensors)

conv1.weight f4 [32, 3, 3, 3]
000000 e1 a9 33 be 96 30 9d 3c 42 61 ee 3b e0 82 dc 3d
       -0.17545272 0.019188207 0.0072747776 0.1076715
000010 96 9f 8f 3e 83 af cb bd 01 21 e2 bd 33 85 6e 3d
       0.28051442 -0.099455856 -0.11041451 0.058232497
000020 25 04 74 3d db 84 39 3c dc 09 14 bd db 94 c4 bd
       0.059574265 0.011323179 -0.036142215 -0.095987044
000030 b6 5b 92 3d 36 66 20 3f 46 7c 60 bc 93 fb 2a 3d
       0.07146399 0.6265596 -0.013701504 0.041743826
000040 36 06 a3 3d 10 e7 e0 bd c0 29 0d 3c 3b 53 06 3e
       0.07960169 -0.10981572 0.008615911 0.13117687
000050 57 01 9b bc 0c fd 35 3e 97 88 7b bb 94 2f d0 3b
       -0.018921537 0.17772311 -0.0038380974 0.006353328
000060 28 b3 f0 3d 11 7f 6c 3c 33 fe 51 ba b2 bd 02 bd
       0.11752921 0.014434592 -0.0008010596 -0.03191919
000070 ab 65 1a 3e ea fb 9d 3d 3a 7a c4 3d 6d 65 5c be
       0.15077846 0.077140644 0.09593625 -0.21523066
000080 fd 1d 2a 3c ce c2 b5 bd b4 84 86 3c 08 58 c7 3b
       0.010383126 -0.08875047 0.0164207 0.006083492
000090 3e 9a 99 bd 18 89 2c bd e0 cd 5a 3d 3c f1 94 3d
       -0.075001225 -0.04212293 0.053418994 0.07272574
0000a0 9c 40 53 bd e6 f3 38 3d 79 93 d6 bc 96 fb 0c bd
       -0.05157529 0.045154475 -0.026193367 -0.03441962
0000b0 26 56 65 bd a5 ab 79 3d ae 9e 87 ba 8e b0 61 bc
       -0.05599036 0.06095471 -0.0010346973 -0.013775004
0000c0 43 8e e5 bc 6b ac fe 3d bd f5 3c bd a8 a1 8f bd
       -0.028021937 0.1243523 -0.04613279 -0.07013255
0000d0 86 16 0d be df a7 c8 bd f9 99 30 3d 2a fc 4d bc
       -0.13778123 -0.09797644 0.04311559 -0.012572328
0000e0 b2 cf 55 bd af a6 f9 bb c0 32 1a be 41 1a 8d bd
       -0.052200027 -0.007618747 -0.15058422 -0.06889773
0000f0 2e 77 21 3d 4e 48 60 3e 51 c8 10 be 32 2a 0a be
       0.0394203 0.21902582 -0.14138915 -0.13492659
000100 d0 17 0c bd df 25 04 3d 5c 01 e7 3c 72 19 da 3f
       -0.034202397 0.03226268 0.02819889 1.7039015
000110 4c 21 99 3d c6 27 a0 bd 0b e5 e0 3c 81 b2 09 bd
       0.07477054 -0.07820086 0.027452966 -0.0336175
000120 37 c1 31 3c 0a 78 a3 bd a3 7d ff bd da 12 00 3e
       0.010849289 -0.0798188 -0.12475135 0.12507191
000130 f6 76 fc 3b e0 88 b1 bd 28 34 d3 ba de d4 cc 3d
       0.007704611 -0.08668685 -0.0016113566 0.10001539
000140 4c 3f 2d 3d f9 60 a4 3d 1c cf 4a bd 31 65 2e bd
       0.042296693 0.080263086 -0.04951392 -0.042576972
000150 62 a6 eb 3c e4 50 a7 3e 60 dd ed bd 8a 41 06 3e
       0.028765861 0.32678902 -0.116144896 0.13110939
000160 5a 64 68 bd d8 a7 b7 3d 59 96 23 3e 2e 19 f7 bd
       -0.056736328 0.089675605 0.15975322 -0.120653495
000170 25 f3 95 bc 1f c9 3e 3d d0 eb dd bf 01 bf 3b 3c
       -0.018304417 0.046578523 -1.7337589 0.011459113
000180 b8 fc ea bc ac cf 48 3d 03 5a 9a bd f5 89 46 3d
       -0.028684959 0.049026176 -0.075366996 0.04847141
000190 bf de b4 bd 76 94 d1 3d 63 d3 1c 3e e3 a3 b4 ba
       -0.08831548 0.10233395 0.15315013 -0.0013781752
0001a0 3b d8 09 bd 5a c1 07 3e c0 2f 41 3d a7 cd 02 be
       -0.03365348 0.13257352 0.04716468 -0.12773763
0001b0 1a 50 d6 3d a1 3b 93 3c df b3 a9 bd 4e 82 94 3d
       0.10464497 0.01797277 -0.08286261 0.07251416
0001c0 52 85 5c be 99 cf 19 3e 0d 48 37 bc d0 a7 b9 3d
       -0.21535233 0.15020598 -0.011186612 0.09065211
0001d0 f9 46 bf 3d c2 f8 e9 3c fc e0 c1 3c 31 de c8 bc
       0.09339709 0.028561 0.023666851 -0.024520012
0001e0 6d c9 46 3d 0c a8 b1 bd ce 63 50 bd 2e 74 84 bd
       0.04853194 -0.086746305 -0.05087643 -0.06467472
0001f0 76 a3 af 3c 7e 15 8a bd 09 da ba 3d 0d b3 35 3d
       0.021440249 -0.067423806 0.09123618 0.04436021
000200 ee 14 ce bc 78 25 b2 3d 7b 59 82 be c3 75 06 3e
       -0.025156464 0.08698553 -0.25458893 0.1313086
000210 d3 1a 26 3d bf 35 78 bd 53 33 34 3d f9 eb 5a bd
       0.040552925 -0.06059813 0.04399426 -0.053447697
000220 4f 28 d7 bd a1 9c e5 3c bf 1e a8 3d c4 f2 98 bd
       -0.10505735 0.028028788 0.08208989 -0.07468179
000230 4e aa e0 3d 9d 28 c5 bc d8 f0 7e 3d 45 58 c0 3d
       0.10969983 -0.024067217 0.062241405 0.09391836
000240 75 e8 b7 3c bf e8 19 bd 19 58 4e 3c f3 06 98 3d
       0.022449711 -0.03757548 0.012594246 0.074232005
000250 6a a5 46 be 93 de f5 bc 61 75 b8 bd 6a e2 c4 bb
       -0.19399038 -0.030013358 -0.09006763 -0.006008436
000260 0c 78 a9 bd 12 ce 74 bd 74 cc 19 3d 02 79 fd bc
       -0.0827485 -0.059766836 0.037548497 -0.03094149
000270 e6 be 36 be df 72 9c 3d 0e 73 1c 3d 77 27 8a bd
       -0.1784626 0.076390974 0.038195662 -0.067458086
000280 ad df 1a 3e da 6d 9d 3d f0 84 be bd 2e 15 36 bd
       0.15124388 0.07686968 -0.093026996 -0.044453792
000290 db ab b1 bd f8 99 b6 bc 15 39 a4 3d 6d 1a c2 3d
       -0.08675357 -0.022290215 0.080187 0.094776966
0002a0 70 3b f3 3c 21 d2 a8 3c af 57 0e bd 1c 30 30 3d
       0.029691428 0.02060801 -0.03475159 0.04301463
0002b0 37 a2 6a 3d 46 32 b1 3d 6f 08 1c 3e 2a 1a 90 3e
       0.057283606 0.08652167 0.15237592 0.28144962
0002c0 1f cc ac 3c a7 bd ae 3d b0 4b c6 bd 0e 73 fa 3d
       0.021093426 0.08532267 -0.09682405 0.12228976
0002d0 ed de 6b bc f8 a8 ce 3b 10 29 de bd 27 e0 8b 3d
       -0.014396411 0.0063067637 -0.10847676 0.06829863
0002e0 95 55 b7 3c 66 c0 7d bc 58 25 45 3d 4a df 18 3d
       0.022379676 -0.015487766 0.048131317 0.03732232
0002f0 f8 63 85 bd bf e9 c5 bd f8 e4 4b 3c 6b e0 99 bd
       -0.06513208 -0.09663724 0.012444727 -0.075135075
000300 a0 a0 09 3b ab 3a 8e bd 82 f0 cc bc 9c 0c 2c 3d
       0.002100028 -0.06944784 -0.025017027 0.042004213
000310 1d 59 87 3d 6a 37 e9 bc 26 c9 b7 bd fb 33 0f be
       0.06608794 -0.028468806 -0.08973913 -0.13984673
000320 fb 97 46 3c 30 56 3f bc e8 53 a8 3d 00 0c 03 3d
       0.012121196 -0.011678264 0.08219129 0.031993866
000330 6f 20 6d 3d 83 09 d3 bc a8 c0 23 be 5d 19 22 3d
       0.05789226 -0.025761371 -0.15991461 0.03957497
000340 dc 14 79 3c b6 08 29 bd 4a 25 15 3d 98 79 78 bd
       0.015202727 -0.041268073 0.036412515 -0.060662836
000350 91 6e 0a bd a9 1c 02 3d 81 33 f3 3d d7 9c 09 be
       -0.03379685 0.031765614 0.11875058 -0.13438736
000360 09 ff c7 3d 61 ba 0c 3d 5a 0f 06 be b1 4f 80 ba
       0.09765441 0.034357432 -0.13091794 -0.0009789375
000370 db e8 fe 3d 88 8b 01 bd f3 d0 cf 3d 18 da 0b 3d
       0.124467574 -0.031627208 0.10147276 0.034143537
000380 46 a6 22 3d 79 0c 4b bd d5 c9 e6 bb 02 ca c5 bc
       0.039709352 -0.04957244 -0.007043103 -0.024144176
000390 58 4f 52 bd 3b fe 66 3d 72 8f 88 3d 13 32 f9 bd
       -0.0513452 0.056394797 0.06667985 -0.12167754
0003a0 1b ea e1 3d bf a7 61 3e 88 ef a6 bd 7c 32 2e be
       0.1103098 0.22036646 -0.08151156 -0.17011446
0003b0 18 1b 44 3d af 3f fd 3b f4 fe f0 be f0 0d ac bd
       0.0478774 0.007728539 -0.47069514 -0.08401096
0003c0 ce 7e 43 bd dd da 78 bd c3 41 21 3c a7 fa 86 bd
       -0.047728352 -0.0607556 0.009842339 -0.06590777
0003d0 82 45 83 bd 06 29 ad 3d 74 99 b6 3c 5e 65 06 be
       -0.06409742 0.0845509 0.022289969 -0.13124606
0003e0 f5 1a 81 bc ef 2e 23 3d 9e 98 68 3c 00 ca 78 bd
       -0.015759924 0.03983968 0.014196543 -0.060739517
0003f0 dd 1e e3 bd 6a 39 eb bd 73 70 88 bc a2 db bb 3c
       -0.11089871 -0.1148556 -0.016655182 0.022931878

conv1.bias f4 [32]
000000 f4 d1 17 bd b9 33 c5 3d 82 20 11 bf 8a c5 0f bf
       -0.03706546 0.09629006 -0.5669023 -0.56160796
000010 ba 9c f5 bd 82 f4 96 bc 43 16 1b bd 19 82 11 3c
       -0.11992784 -0.018427137 -0.037863027 0.008881115
000020 13 77 ed bd 37 a8 a0 bd 63 90 bd be 35 a2 25 be
       -0.11594977 -0.078445844 -0.3702422 -0.16175158
000030 63 04 73 be c6 de 15 3e 57 b4 74 be 36 9d 36 3d
       -0.23732142 0.14635763 -0.23896919 0.04458352
000040 0a 33 14 be 33 57 81 3d 78 bd bd 3d 08 27 d6 3c
       -0.14472595 0.0631546 0.09264654 0.026141658
000050 6b e1 15 be d7 80 1f 3e 9e bb f1 bd b9 af be 3d
       -0.14636771 0.15576492 -0.11803363 0.0931086
000060 c2 3a e5 bd 67 c2 b5 bc 6c f2 b1 3e 5a 2a ed 3c
       -0.11192848 -0.022187425 0.34755266 0.028950859
000070 00 a9 16 be ea 09 9d bd c5 6f 58 3e 6e 81 9d 3d
       -0.14712906 -0.076679066 0.21136387 0.076907024

conv2.weight f4 [32, 32, 3, 3]
000000 04 58 b7 bd 10 f8 9c 3d 30 3f de bd 14 04 ae bd
       -0.089523345 0.07664502 -0.10851896 -0.084968716
000010 1b 95 8f 3d 5b 17 a0 bc 0c 5b c4 3d 7a 41 13 bc
       0.070108615 -0.019542387 0.09587678 -0.008987779
000020 48 68 8d 3d 34 91 36 bc 3c 9e d7 3c ec b3 0c 3a
       0.06904656 -0.011143018 0.02632057 0.00053673866
000030 7d ca b6 bd c4 ed 41 bd f2 60 ab bc 6a eb cb bc
       -0.0892534 -0.04734589 -0.02092025 -0.024892528
000040 56 a4 b2 3b 3e 9d 69 bd b6 b3 d9 bc 64 f2 0f be
       0.0054517193 -0.057034723 -0.02657495 -0.14057308
000050 9b 38 04 bd 2b 74 1c bd 8c 91 d2 3d 97 5d 4a 3d
       -0.032280546 -0.038196724 0.10281667 0.04940566
000060 c9 0d 4e 3c c6 7f 23 3c 98 70 2c 3d f2 27 5d 3a
       0.012576529 0.009979194 0.042099565 0.0008436433
000070 a8 80 cf bd 69 75 ae 3d 69 39 54 bc ab 0e c2 bd
       -0.10131961 0.08518488 -0.012953141 -0.09475454
000080 f2 d8 5e 3c 18 b2 1f 3d 9d 5b c4 3d 3f 9b e0 3c
       0.0136015285 0.038988203 0.09587786 0.027417777
000090 ce bb 0e bc 3c 10 4a 3d 49 53 9b 3d 48 58 89 3d
       -0.008711768 0.04933189 0.07584245 0.067062914
0000a0 ed 83 aa bb f9 24 53 3d 28 81 22 bd 6c 2d fc 3b
       -0.005203715 0.05154893 -0.039673954 0.0076958444
0000b0 22 83 e7 bc 9e 9f 42 bd 36 f3 54 3c db ed 5e bd
       -0.028260771 -0.047515504 0.012997439 -0.054426055
0000c0 2f 7f 4f 3a 3e 32 85 3d 4d e7 8a bd d7 5a 01 bd
       0.0007915375 0.065037236 -0.067823984 -0.031580772
0000d0 ef 92 f0 3d 8d 53 30 bd 05 ed 1b 3c de 47 0e 3c
       0.11746775 -0.04304843 0.009516959 0.008684127
0000e0 d3 7e 0f bd a3 a2 b6 bc 9c b8 e2 bc 68 45 c3 bc
       -0.03503306 -0.022294348 -0.02767592 -0.023836806
0000f0 8d 76 99 bc c7 aa ad bc a6 e3 7d bd d5 0b 01 3e
       -0.018733287 -0.021199597 -0.06198468 0.1260217
000100 86 a1 41 bb bd cb 2d bd c9 ff bc bc ca 99 9a bd
       -0.0029545738 -0.042430628 -0.023071187 -0.07548864
000110 e3 c0 d0 bc 1b ab 3f bc 43 e0 a2 ba 69 c1 e3 3a
       -0.0254826 -0.01169851 -0.0012426454 0.0017376366
000120 67 ec 9d 3b 75 af 7e bd 8f 61 35 be 60 a4 8a 3d
       0.004819441 -0.062179048 -0.17712997 0.06769633
000130 8f 2e e9 bd 23 a4 3c 3d 88 27 8f 3d 72 b4 23 bd
       -0.113858335 0.04605497 0.06989962 -0.039967008
000140 3d bb fc 3c 3b d9 3f 3c a3 cd 90 bc 96 95 90 3d
       0.030851 0.011709507 -0.01767618 0.07059781
000150 83 33 c0 3d f1 9b 57 3d f5 f0 5e 3d 0c e2 cd 3c
       0.09384825 0.05263895 0.054429013 0.025132202
000160 50 9d 1f 3e aa bb d7 bd 92 a9 02 3d 77 c4 52 bc
       0.15587354 -0.10533841 0.031899996 -0.012864224
000170 7d 50 19 bd 0b ca af bd b1 a5 66 3d f8 24 1c 3d
       -0.037430275 -0.085834585 0.05631036 0.038121194
000180 87 74 25 3d ad 19 7e bd f1 a6 01 bc 37 43 31 bd
       0.040394332 -0.062036205 -0.007913337 -0.04327699
000190 73 c4 91 3c f0 ac f0 3d 66 2e dd 3b 3e 7b 0b 3d
       0.01779387 0.11751735 0.006749916 0.03405308
0001a0 a7 08 2a 3c b1 11 bc 3b e3 0c 8a 3d 5f db 25 3c
       0.010378039 0.0057394137 0.06740739 0.010123103
0001b0 59 f7 8b bd 3d 05 09 bc 9b 26 55 3d b6 27 4b bd
       -0.06834287 -0.008363065 0.05203877 -0.04959842
0001c0 e2 10 bf 3d 03 72 83 3d d4 08 23 bd ea f0 56 bd
       0.09329392 0.064182304 -0.03980334 -0.052475847
0001d0 37 3e af bc 57 e8 d4 bb ad 29 f7 bc 0a 75 03 3e
       -0.021391971 -0.0064974236 -0.03017124 0.12837616
0001e0 93 0c 36 ba c7 db c9 3d 95 bd 86 3d 43 9a 95 bd
       -0.0006944623 0.09856372 0.06579129 -0.07304814
0001f0 d8 35 0f 3d 7a c5 87 bd f3 19 90 bd bf e7 3c 3d
       0.03496346 -0.066294625 -0.070361994 0.046119448
000200 63 fe fd bc cc 5d 34 3b 2b e5 38 bd 8e e0 a9 bd
       -0.03100509 0.0027521728 -0.045140427 -0.082947835
000210 e3 b3 3b bd 87 47 16 bd be 5f db bc 3a 7e c4 bc
       -0.04582585 -0.036689308 -0.026779052 -0.02398597
000220 5e 3a 90 bd 3f 07 27 3a ca c6 ae bb 58 4b 4e bd
       -0.07042383 0.0006371624 -0.005333756 -0.050364822
000230 36 e4 4c bc fd 8a 0c bc 52 3d 62 bd 2b 4a b0 bd
       -0.012505582 -0.008578059 -0.05523426 -0.086078964
000240 45 da d4 bd 6c b3 ed 3c 7d a7 b1 bd 26 4c 9d bc
       -0.10393194 0.02901622 -0.08674524 -0.01920135
000250 b7 96 ea 3b 30 bd c3 bd 09 c6 86 ba 0d 7b 7d 3c
       0.00715908 -0.09557569 -0.0010282408 0.015471232
000260 64 f8 1a 3d 3e 44 c2 3b b8 64 94 bc fd f6 37 bd
       0.03783454 0.0059285453 -0.018114433 -0.04491328
000270 b1 c8 07 3c 0c 12 7f 3c e1 c9 ba 3d c8 26 65 bc
       0.008287595 0.015568268 0.091205366 -0.013986297
000280 a7 b8 c1 3d 12 d8 f2 bc 7e 71 80 bd 3b c4 40 bd
       0.09459048 -0.029644046 -0.06271647 -0.04706214
000290 51 a1 d7 3c 26 dd 51 3d 59 21 63 3d 5c a0 58 bb
       0.026322039 0.051236294 0.055451725 -0.0033054566
0002a0 00 78 a3 3c c8 53 f2 bc 71 bc e7 3c 20 f5 f4 3c
       0.019954681 -0.029580966 0.028288098 0.029902041
0002b0 49 91 20 3d 83 1f cf bc 3f cb 26 3d 6d ab cb bb
       0.039201055 -0.02528358 0.040721174 -0.006215504
0002c0 5c ba af 3c 96 dc e0 bb 99 72 af bd cb 36 aa 3d
       0.021451168 -0.0068622334 -0.0856678 0.08311232
0002d0 f0 7d a5 3d 0a af 07 3d 7c 6a a1 bd fc b5 b4 bc
       0.08080661 0.033125915 -0.078816384 -0.022059433
0002e0 36 77 23 3d 68 a6 11 3d 89 48 d6 bb 16 ed c9 bb
       0.03990861 0.035559088 -0.0065394086 -0.006162296
0002f0 7c b4 c5 3d c0 ec 64 3d 48 71 70 bd 27 40 cb bb
       0.09653565 0.055889845 -0.058701783 -0.006202716
000300 0b aa 7a bc 8f 7d f3 bc c2 21 3b bd 98 e1 a1 bd
       -0.01529933 -0.029722957 -0.04568649 -0.07904357
000310 4b 84 20 bd 81 07 ee 3d 7e d9 89 bb 73 40 80 bd
       -0.039188664 0.11622525 -0.0042068353 -0.06262293
000320 db 59 9e 3d a8 df 1b 3c 20 e3 73 3d 2f 39 9d bd
       0.07731982 0.009513773 0.059542775 -0.076769225
000330 04 de 81 bd 5a a3 9b bd af 47 15 bd 07 f5 b0 bc
       -0.06341174 -0.07599516 -0.036445316 -0.021601213
000340 e4 04 6d 3d 7e 58 c8 3d 69 44 6e 3b 73 e5 5d 3c
       0.057865992 0.097825035 0.0036356694 0.0135434745
000350 05 e1 c9 3c 38 eb 99 bc bf b9 27 bd 13 9c 27 bd
       0.02464343 -0.018788919 -0.040948626 -0.04092033
000360 c4 57 8a bd 7a da f8 bd 6d 8f f4 3d 5f 27 c2 bd
       -0.06755021 -0.12151046 0.11941419 -0.09480166
000370 59 6a 78 bd 17 9b 10 3d fe fe 25 bd a3 e3 c1 bd
       -0.060648296 0.035304155 -0.040526383 -0.094672464
000380 4f 40 9a 3d 2a 92 84 bd 82 2d ef 3c 1e b0 8a bd
       0.07531797 -0.06473191 0.029196505 -0.06771873
000390 60 05 7d 3d 7a ff bc bd 5e cd 1e bd a9 76 b6 bd
       0.061772704 -0.09228416 -0.038770072 -0.089093514
0003a0 5c b3 d6 bc d6 f1 4c 3d 3c b4 fb bc 98 d6 81 3d
       -0.026208572 0.05003532 -0.03072559 0.06339759
0003b0 98 97 2d 3d 6d 06 29 3c 77 a1 8b 3d 24 d4 39 3a
       0.0423809 0.010316473 0.06817906 0.00070888014
0003c0 e7 fc 51 3d 18 b5 f3 bd 6c 7a b3 bd 86 11 88 3d
       0.051266577 -0.11899775 -0.087635845 0.06643967
0003d0 ee cb 45 bd 6c d4 09 3d 77 cb 0c be 5a 88 a0 bd
       -0.048290186 0.033649847 -0.1374949 -0.07838507
0003e0 03 f3 24 be 03 75 4b bd 40 16 62 3d bc b8 ad 3d
       -0.16108327 -0.049672138 0.055197 0.08482501
0003f0 dd a0 a1 3c 9f 3e 47 bb 15 15 0b bc 53 ac 81 bd
       0.019730026 -0.0030402315 -0.008488913 -0.06331696

conv2.bias f4 [32]
000000 d8 7a a7 3c 42 da 1d be 4e 07 1a 3d f2 13 8a bd
       0.020444319 -0.1541529 0.037604623 -0.067420855
000010 85 35 ae bd 8f 17 d9 ba b2 b3 0a 3e 1f 22 06 bd
       -0.08506302 -0.0016562807 0.13545111 -0.032747384
000020 9d 80 33 3c a1 6c 83 bd d2 56 90 bb 55 81 9e bd
       0.010955957 -0.06417204 -0.004404881 -0.07739512
000030 2a 69 85 3d 30 d7 9d 3d b8 27 1f 3d 2d 01 1f 3c
       0.06514199 0.077070594 0.038856238 0.00970487
000040 b4 24 0e bd e2 e0 29 be 3d 78 6b bd d6 a6 da 3c
       -0.03470297 -0.16589692 -0.057487715 0.026690882
000050 ab 50 fb 3d d8 5e 18 bd f8 2e 1d bb d1 ad 87 bd
       0.122712456 -0.037199825 -0.0023984294 -0.0662495
000060 70 f5 9b bd a9 67 8a 3d 3a e1 96 bd 60 a7 45 3e
       -0.07615173 0.06758053 -0.07367177 0.1930213
000070 ef 83 88 bd 65 73 0b be 75 bc d5 bd 10 7c 36 3d
       -0.06665789 -0.13618238 -0.10436336 0.04455191

conv3.weight f4 [32, 32, 3, 3]
000000 1a 22 ef b8 fa b9 b4 3c 7b 07 9f bc 17 8a eb 3b
       -0.0001140276 0.022061337 -0.019412747 0.0071880925
000010 5d 2f 88 bd 74 e6 90 bd 68 d8 3e 3d 98 f0 9f bd
       -0.06649659 -0.070752054 0.0465931 -0.078095615
000020 79 41 d7 ba 90 0d 99 3c 97 18 9b 3d 65 28 d6 bc
       -0.0016422711 0.018683225 0.075730495 -0.026142308
000030 f2 7d 16 bd 64 a7 5c 3e 41 e2 2c bd c3 37 81 3d
       -0.036741205 0.2154823 -0.04220796 0.06309464
000040 0a 67 95 3d 61 05 71 3c 18 1d 8c 3c a2 04 c9 3d
       0.07295044 0.014710755 0.017103717 0.09815337
000050 97 6b 99 3d ec 6b 1e bc 57 f3 3b 3c ac 71 12 3d
       0.07491224 -0.009669285 0.011471591 0.035752937
000060 41 08 8c 3d 5e c5 4c bd 91 17 3e bc 3c ab 1a 3b
       0.06837512 -0.04999291 -0.011602298 0.0023600599
000070 79 9f 10 3d f0 17 11 3d 43 9f 6d bd cf 04 bc 3d
       0.035308335 0.03542322 -0.058013212 0.09180605
000080 0f fe e3 bc 3f 43 09 3d d0 eb 98 bd 3a 9d 56 3c
       -0.027831106 0.033511396 -0.07466853 0.013099009
000090 c8 6e 8c 3d 7f 3b 8a 3d 88 e4 8e bd 96 97 bb 3d
       0.06857067 0.06749629 -0.069771826 0.09159772
0000a0 43 0e a8 3d a2 a7 04 bd 49 46 2d 3d e9 db 6e bd
       0.08205845 -0.03238643 0.042303357 -0.05831519
0000b0 8b 3e b8 bd 9a 8a d3 bc 6b 3c 4f bd 3f d7 c7 3c
       -0.08996304 -0.025822926 -0.05059473 0.02439463
0000c0 06 13 42 bc 61 5d d4 bb 11 fe 97 bb 64 10 8f bd
       -0.011845356 -0.006480858 -0.0046384414 -0.06985548
0000d0 3f 87 50 bd 8e 43 32 3c d0 13 64 bd e6 34 04 bc
       -0.05091023 0.010880364 -0.055682957 -0.008069253
0000e0 23 12 80 bd 5d c7 1c bd 9f 05 94 bc 00 ce 25 bd
       -0.06253459 -0.038276065 -0.018069087 -0.04047966
0000f0 6f 35 bd bc 70 0d 0f bc 70 29 98 bd 22 3a cc bc
       -0.023096768 -0.008731231 -0.074297786 -0.024930064
000100 1b 4f 4d 3d 17 84 a3 bc 22 27 90 bc 0d 86 69 3d
       0.05012427 -0.019960446 -0.017596785 0.057012606
000110 8d 24 d5 bd 0a 48 95 ba 22 87 7e 3d 4e eb 9e 3d
       -0.10407362 -0.0011389267 0.06214059 0.077597246
000120 7d 9a 1d 3d 54 99 6f bd 79 b9 44 bd be 3f 9d 3d
       0.03847741 -0.058495834 -0.048028443 0.076781735
000130 93 93 d5 3c 18 36 c7 bd f3 10 96 3d f5 4a 07 bd
       0.026071345 -0.097271144 0.073274516 -0.03303047
000140 a1 7e 15 3d 63 83 88 bc 8f f6 c8 bb e4 81 6d 3c
       0.036497716 -0.016664213 -0.0061329077 0.0144963
000150 95 cd fd 3c 27 68 ea 3d 85 a7 d0 bb 44 06 c7 bd
       0.030981818 0.11445647 -0.006367626 -0.09717992
000160 46 f0 01 bc 8a 82 ae bd ce ac 0f bc 8e 3e 3b 38
       -0.007930821 -0.08520992 -0.008769227 4.4642533e-05
000170 79 88 38 3d fa b2 2a bd 74 53 b2 bc 77 16 03 be
       0.045052025 -0.04167459 -0.02176831 -0.12801538
000180 b8 32 a9 3d b0 ba 0d 3c d3 da d0 bc df 86 86 bd
       0.08261627 0.008650467 -0.025494969 -0.06568693
000190 af 27 22 bd 69 ee 22 3d d3 8b f7 3d 28 2f 8e 3d
       -0.039588626 0.039778147 0.12087216 0.06942588
0001a0 a4 01 f2 3c f4 ce 46 bc b9 be a7 3c 82 a3 13 bd
       0.029541798 -0.012134302 0.020476686 -0.036044605
0001b0 c2 01 75 bc a6 3e 2f bd 0d aa fd 3a d6 9b 05 bb
       -0.014954032 -0.042784356 0.0019353047 -0.0020387075
0001c0 6c 44 ae bd f8 dc 47 3c 0f 99 f6 bd 93 54 78 ba
       -0.08509144 0.012198679 -0.12040912 -0.0009473052
0001d0 94 6d 96 3c 1e fe 3e 3c f6 31 5d bd 5d 6f 03 3d
       0.018362798 0.011657266 -0.054002725 0.032088626
0001e0 60 53 2b 3e db 6b 44 bd c1 eb 8f bd 2b 06 ce ba
       0.16731024 -0.04795442 -0.07027388 -0.0015718391
0001f0 60 08 ec 3b 18 0d a4 3c 23 45 be 3c 16 b9 4d 3c
       0.007203147 0.020025775 0.023226326 0.012556335
000200 17 80 ea bc d0 b2 6b bd 3c d8 52 bd eb 7b 13 3c
       -0.028625531 -0.057543576 -0.05147575 0.009001712
000210 70 2a f0 3d 90 76 78 3d dd 82 c2 bd a8 5f cb bc
       0.11726844 0.060659945 -0.094976164 -0.024825886
000220 7b 3b a2 bc 3d de a7 3d d9 df d5 bd c3 f5 b7 3d
       -0.019803753 0.081966855 -0.10443086 0.08982422
000230 64 cd 95 bd 66 14 6f bd 6d df 5c bd 6b 3e 29 3d
       -0.07314566 -0.058369063 -0.053924013 0.041319292
000240 29 7b a0 3d 7e 1e 0f 3d 32 ce 7a 3c 79 80 20 bd
       0.07835991 0.03494119 0.01530795 -0.03918502
000250 1b f2 96 bd 47 1e 5e bc c3 8b c1 3b af 9a 35 bc
       -0.07370397 -0.013557023 0.0059065535 -0.011084243
000260 a6 11 46 3b 62 25 09 3d 92 6d 00 3d ea 7e cb 3c
       0.0030222922 0.033482917 0.031354494 0.02484079
000270 38 7b a8 bd 95 03 2a 3e 1e 68 69 bd 13 5a e8 3c
       -0.08226627 0.16602929 -0.05698406 0.028363263
000280 03 bb 80 3d bb 99 ee bc e7 d5 c2 3c 63 81 6e 3d
       0.0628567 -0.029126039 0.023783637 0.05822886
000290 3a 47 a2 3c b5 8d 34 3d 99 29 3e 3d ff ab b9 3d
       0.019809354 0.044080455 0.04642639 0.09066009
0002a0 5a 60 13 3d a4 97 c4 3d 3a 4b 86 bd 75 3c a0 bd
       0.03598056 0.09599236 -0.06557317 -0.07824031
0002b0 d0 6b c7 bc d5 19 b2 3c 38 12 ab bd e1 74 0d 3d
       -0.024343401 0.021740833 -0.08353084 0.034535293
0002c0 94 80 b5 bc 95 19 e6 3d 4e e9 b7 bc 7b 25 10 3c
       -0.022156037 0.11235348 -0.022450116 0.008797999
0002d0 88 d6 ac bd e2 72 a2 bd fc b0 ff bc 26 6c 21 3d
       -0.08439356 -0.079320684 -0.031212322 0.03940978
0002e0 63 2b 2a bd 92 c4 4a 3d ed b9 d1 3c bf 16 97 bd
       -0.041545283 0.04950387 0.025601352 -0.07377385
0002f0 ec 7f d2 bc 25 0b 7d bd 74 ae ec bc 3f 6f 6a bd
       -0.025695764 -0.061778206 -0.02889178 -0.057235
000300 3d 0a 51 3d 77 ca ae 3d 86 02 ad 3b a6 72 fe bc
       0.051035155 0.08534711 0.005279842 -0.031060528
000310 d6 73 37 3d bb 59 3c bd 27 f9 30 bc a6 3e 58 3d
       0.044788204 -0.04598401 -0.01080159 0.05279412
000320 f8 6d 88 bc 3a 69 17 be 01 f8 fb bc 51 a0 b2 bd
       -0.016654 -0.14786234 -0.030757906 -0.08721984
000330 bb c3 7c bd fc a3 78 bd a2 a1 8f 3d b3 73 cb 3c
       -0.0617101 -0.060703263 0.07013251 0.024835443
000340 4e fc 23 bc 48 0e 16 bd 2b cf c1 bc 26 32 30 3e
       -0.010008885 -0.036634713 -0.023658356 0.1720663
000350 c7 36 a9 bc db 02 42 3c 88 9d a2 3d ba 14 dd 3d
       -0.020656003 0.011841501 0.07940203 0.10794969
000360 6c 50 2c 3d 95 ec 05 3d 66 17 8d 3d 02 2e b1 bd
       0.042068884 0.032696325 0.068892285 -0.086513534
000370 0d f3 3d 3d 56 95 c7 bd 45 92 d7 3d 2e df a0 bd
       0.04637437 -0.097452804 0.105259456 -0.07855068
000380 1b d1 fe 3b c7 47 61 bd 39 0a aa 3d 9b c4 1d bd
       0.007776392 -0.055000093 0.08302731 -0.038517576
000390 89 a5 0d 3d 5c 27 81 bd d0 94 0e 3d 18 9e 60 bd
       0.034581695 -0.06306335 0.034809887 -0.05483827
0003a0 d8 ba 20 bc 13 9a f6 bc 4f d1 59 bd 2d d6 0d be
       -0.009810172 -0.030102765 -0.053178128 -0.13851233
0003b0 da 73 b5 bb 52 8a df b9 da e2 89 bd 82 94 88 bc
       -0.005537492 -0.0004263693 -0.067327216 -0.016672377
0003c0 15 31 d5 3c 89 a3 40 bd bd 93 52 3d ed 2a e7 ba
       0.02602438 -0.04703096 0.051410425 -0.0017636694
0003d0 b6 f5 80 3d 70 29 9c bd d5 9c 34 3d 59 81 5e be
       0.06296866 -0.07625091 0.04409488 -0.2172903
0003e0 f3 d4 e1 bc 62 e5 58 bd f7 4f 88 bd 80 5f 4e 3d
       -0.027567362 -0.05295313 -0.06655877 0.050384045
0003f0 a6 18 5f bd 5e 98 80 bb e4 6b ab 3c 1a a8 6e 3d
       -0.054466866 -0.0039244136 0.02092547 0.058265783

conv3.bias f4 [32]
000000 95 55 cd bd 15 b5 bb 3d 5f 50 6f 3d 4b 78 bf bd
       -0.10026089 0.09165398 0.058426257 -0.09349116
000010 35 40 cb 3d 2e 0f d5 bd 70 6f 55 3d b4 60 6c bd
       0.09924356 -0.10403286 0.05210823 -0.05770941
000020 c1 e8 41 3d 33 cd 1b bd fb 40 1e be 1a 28 c3 3d
       0.047341112 -0.03803749 -0.15454476 0.09529133
000030 51 9b a4 bc b1 bb 39 bd 00 1b 22 3d 17 70 ad 3d
       -0.020093592 -0.045345012 0.03957653 0.08468645
000040 0b 5a 6b bd c8 7f 17 bc 54 4a ce bc 80 8f 25 bd
       -0.05745892 -0.009246774 -0.025181927 -0.040420055
000050 91 0f 97 3d ec 91 0b bd d8 dc 93 3d 0e b0 04 3d
       0.07376016 -0.03407471 0.07219857 0.03239446
000060 7d c3 e3 bd 2c 77 d8 3d ff b7 8b 3d c1 fe 54 3d
       -0.11121271 0.10569605 0.06822204 0.052000765
000070 ab b3 26 3d eb a5 c1 3d fc a9 8e 3d 7a 38 4a 3d
       0.04069869 0.094554745 0.06966016 0.049370266

out_conv.weight f4 [3, 32, 1, 1]
000000 f8 75 bd be 19 e8 fe 3e 72 96 1a 3e 9e 99 f5 be
       -0.37004066 0.4978645 0.15096453 -0.47968763
000010 cf 69 ee 3e 4d 3f 03 bf 76 a1 34 3e f5 0e 92 be
       0.465651 -0.51268464 0.17639717 -0.28527036
000020 aa f4 54 3e 87 1c 24 be 63 47 f3 be cd 31 9f 3e
       0.20796457 -0.16026507 -0.475154 0.31092682
000030 c9 03 4e bd f2 3f 45 be 5e 6f 6a 3d 05 f6 b9 3e
       -0.05029658 -0.19262674 0.057235114 0.3632051
000040 12 ea 43 be 5d ff 99 bc 26 07 f5 bc 30 09 fb be
       -0.1913226 -0.018798525 -0.029910635 -0.49030447
000050 20 21 84 3e 2d 14 d0 bd 3a f9 8f 3e 5f 02 a0 3d
       0.25806522 -0.10160098 0.28119832 0.07812952
000060 2b f0 e2 be dc a9 a5 3e f3 4f 2b 3e ce 05 26 3e
       -0.4432386 0.32356155 0.16729717 0.16213152
000070 3d 72 88 3e c0 b0 c6 3e bf 54 6c 3e 8f 97 89 3e
       0.26649657 0.38806725 0.23079203 0.26873443
000080 04 1f 1c 3d d3 5b 44 3e 94 36 9b 3d e6 5e a3 be
       0.038115516 0.19175653 0.07578769 -0.3190834
000090 e0 0f 6d be b9 62 02 bb 07 87 6d 3d de 92 39 3d
       -0.23150587 -0.001989527 0.0579901 0.04530608
0000a0 e1 2e ae be dd 1b c1 3d d5 43 dd bd 05 02 f8 3e
       -0.3402014 0.094291426 -0.108039536 0.4843904
0000b0 24 a7 1a bd 3c a6 1b bb cb aa 61 bd c6 21 5e 3d
       -0.037757054 -0.0023750206 -0.05509452 0.054231428
0000c0 58 46 06 be 9d e8 98 be 9b 42 17 3d c2 81 14 3f
       -0.13112772 -0.2986497 0.036928754 0.58010495
0000d0 c5 e8 ca 3c 43 08 74 3c d6 bc f3 be 1c fe 6c 3e
       0.024769196 0.014894548 -0.47605008 0.2314381
0000e0 c9 4f b8 3e cf 4f 54 3e f5 16 da 3d cb bb 5f 3c
       0.3599837 0.2073357 0.1064891 0.013655613
0000f0 e5 a2 95 be ea c5 6a 3d 02 52 ac 3d 37 58 38 be
       -0.2922584 0.05731765 0.08414079 -0.18002401
000100 79 7f cb 3e 6a d2 cc 3d 9c e4 80 3d 28 fa c8 3d
       0.3974569 0.10001071 0.06293604 0.098133385
000110 5d 22 1e 3e 99 2d c2 bd 65 85 e4 bd b1 25 93 be
       0.15442796 -0.09481353 -0.111582555 -0.28739694
000120 a6 4d 58 bd 14 0f a5 3e 8a c8 95 be cf 22 94 be
       -0.052808426 0.32238066 -0.29254562 -0.28932807
000130 14 2c 70 3e 7c bd 98 3d 7a 8a b5 3e 3f ea 3e bd
       0.23454314 0.07458016 0.35457212 -0.046610113
000140 51 39 33 3e ff 3a c0 3d 4c cd 95 3a ee eb 90 be
       0.17502333 0.093862526 0.0011428981 -0.28305
000150 70 d0 de bc c8 46 ca bd 7a f4 0f be 9f f5 96 bd
       -0.027199 -0.09876782 -0.14058104 -0.07371067
000160 4e a8 b5 3d 6c 93 e0 3c d5 2b f7 bd bd aa ed 3c
       0.08869992 0.027414046 -0.12068907 0.029012078
000170 21 cf 79 be c3 93 d1 bd 62 ea eb 3e 92 6e f3 3e
       -0.2439542 -0.102332614 0.46077257 0.47545296

out_conv.bias f4 [3]
000000 7e 6e 05 3e 0a 83 24 3d 00 00 00 00
       0.1303043 0.04016403 0.0
