navier_adam_lbfgs_model.pth (torch, 81837 bytes, 8 tensors)

conv1.weight f4 [32, 3, 3, 3]
0	0x3cbd22e8	0.023087934
1	0x3d99e115	0.07513634
2	0xbe011223	-0.12604575
3	0x3d30d61e	0.043172948
4	0xbeab768f	-0.3348889
5	0x3b5c8061	0.0033645856
6	0xbd2db468	-0.042408377
7	0xbe0b864d	-0.1362545
8	0xbca244c6	-0.019808184
9	0xbd42a18c	-0.047517344
10	0xbd740d78	-0.059583157
11	0x3c6a042b	0.01428322
12	0xbe069776	-0.13143715
13	0x3e3dbaf4	0.18528348
14	0xbcc5f3e1	-0.024164142
15	0x3dd94a94	0.10609928
16	0xbdc5da2a	-0.09660752
17	0xbd29450b	-0.04132561
18	0x3e250642	0.16115668
19	0x3dab0485	0.083504714
20	0x3da8ca21	0.08241678
21	0x3de61329	0.11234123
22	0x3cc57f45	0.024108538
23	0xbc616e5f	-0.013759225
24	0x3c9b5736	0.018962484
25	0xbe04036d	-0.12891932
26	0x3c462b26	0.012095248
27	0xbdbb66c0	-0.091504574
28	0x3dd31af0	0.10307872
29	0xbe0ed0f6	-0.139469
30	0xbd41bc01	-0.047298435
31	0xbe225cef	-0.15855764
32	0xbc962f6e	-0.018333163
33	0xbd44301b	-0.04789744
34	0xbd8c8d82	-0.06862928
35	0xbde75c5c	-0.11296913
36	0xbd184477	-0.03717467
37	0xbca33781	-0.019923927
38	0x3d923b02	0.07140161
39	0x3df0a708	0.11750609
40	0x3ea753fa	0.32681257
41	0xbd10b227	-0.03532615
42	0x3d214dc3	0.0393808
43	0xbdaede81	-0.08538533
44	0xbcc74eac	-0.024329506
45	0xbd815b6b	-0.06316265
46	0xbd7bd95d	-0.06148659
47	0xbcacf87a	-0.021114577
48	0xbe0e9bcb	-0.13926618
49	0xbe4289b9	-0.1899785
50	0xbe326d85	-0.17424591
51	0x3e3bf259	0.18354167
52	0xbd26a93c	-0.04068874
53	0x3b7b38af	0.0038333347
54	0xbe33322c	-0.17499608
55	0xbe3952b4	-0.18097955
56	0xbd2c5544	-0.042073503
57	0xbdf42d82	-0.119227424
58	0xbd5a189b	-0.05324612
59	0x3dae939d	0.08524249
60	0xbe014ea8	-0.12627661
61	0xbdeaeb1f	-0.11470627
62	0xbdbf9639	-0.093548246
63	0x3c716861	0.0147343585
64	0xbe0d9387	-0.13825808
65	0x3c2367dc	0.0099734925
66	0x3dd8b34b	0.105810724
67	0x3e1e5564	0.15462261
68	0xbc264c8c	-0.010150086
69	0xbd19d7ae	-0.037559204
70	0x3a4b9565	0.0007766097
71	0xbd34959e	-0.044088
72	0x3dfa13f0	0.12210834
73	0xbb652ff2	-0.0034971205
74	0x3df77c3e	0.12084244
75	0x3ccebf25	0.02523763
76	0xbd5fcaf6	-0.054636918
77	0xbcbeb594	-0.023279943
78	0xbd96b7c3	-0.073592685
79	0xbcbc8f13	-0.023017442
80	0x3d6deda5	0.058087964
81	0x3d20f9ec	0.039300844
82	0xbddaa0c5	-0.106751956
83	0x3d6fc85b	0.058540683
84	0xbbb1ca17	-0.0054257023
85	0xbf081fdc	-0.53173614
86	0xbe066c85	-0.13127334
87	0xbc88150a	-0.016611595
88	0x3c8bc0ac	0.017059647
89	0x3d06e029	0.03292862
90	0xbc9f9862	-0.019481841
91	0x3d1f3b94	0.038875178
92	0xbdb278fa	-0.08714481
93	0x3d60fbd0	0.054927647
94	0xbe795ae0	-0.24351072
95	0xbdb56002	-0.08856203
96	0xbdcad153	-0.09903207
97	0xbe6a5ba3	-0.22886519
98	0xbe171e4b	-0.1475765
99	0xbe04d8a1	-0.12973262
100	0xbc454d9b	-0.012042428
101	0x3dfd4233	0.12366142
102	0xbd34037b	-0.04394863
103	0x3d9252e3	0.07144716
104	0x3d279eb9	0.040922854
105	0xbdd9653a	-0.106150106
106	0xbc2fac01	-0.010722161
107	0x3dc0ceb3	0.09414425
108	0x3e2eb7bf	0.17062281
109	0x3b83484f	0.0040064226
110	0x3da88603	0.08228686
111	0x3da25296	0.07925908
112	0x3a0fb088	0.00054813223
113	0x3e09e043	0.13464455
114	0x3dde56de	0.10856412
115	0x3d810d75	0.06301395
116	0xbdb0530f	-0.08609592
117	0xbdbd6803	-0.09248354
118	0xbd820799	-0.063491054
119	0x3d7d5982	0.06185294
120	0xbd8b5306	-0.06802945
121	0x3efcd4c6	0.49381083
122	0x3ce21fa2	0.027602974
123	0xbd6674f6	-0.056263886
124	0xbd7810e2	-0.060562976
125	0x3c86ce00	0.01645565
126	0xbd10daae	-0.0353648
127	0xbcb069ca	-0.02153482
128	0x3b53d092	0.0032320363
129	0xbe14c0e2	-0.14526704
130	0xbaa643df	-0.0012685022
131	0x3ca3ec34	0.020010091
132	0xbd66e5a9	-0.056371365
133	0xbc8d7123	-0.017265862
134	0xbce8d1f6	-0.02842043
135	0xbd01dff1	-0.031707708
136	0x3c8d1896	0.017223638
137	0x3dc52ebd	0.09628055
138	0x3ddb3b84	0.10704711
139	0x3f3af06c	0.73023105
140	0xbe0f1b0c	-0.13975161
141	0x3d325874	0.043541387
142	0x3d83f521	0.06443239
143	0xbcf81e44	-0.03028787
144	0xbda6a1c5	-0.08136324
145	0x3cb8de2a	0.022566874
146	0xbd20db56	-0.039271675
147	0xbce3a1e5	-0.027787158
148	0xbed394aa	-0.4132436
149	0x3e06f2fe	0.13178632
150	0xbd128fee	-0.035781793
151	0xbe37c7f1	-0.17947365
152	0x3ddee639	0.10883755
153	0xbd009e51	-0.031400982
154	0x3d22ca6f	0.039743837
155	0xbdc9b0e6	-0.09848194
156	0xbd16f634	-0.03685589
157	0xbc8f5859	-0.017498182
158	0xbca95cba	-0.020674098
159	0x3b91d89a	0.0044508697
160	0x3a211a93	0.00061456225
161	0xbda99f9e	-0.08282398
162	0x3997c7bc	0.00028949778
163	0xbdc1d126	-0.0946372
164	0xbcd73db2	-0.026274536
165	0xbd85b4f7	-0.06528657
166	0x3e5ca81b	0.21548502
167	0xbd1e225a	-0.03860698
168	0xbe1342bf	-0.1438093
169	0x3d633378	0.055469006
170	0xbd049de6	-0.032377146
171	0x3ddbba77	0.10728925
172	0xbdd5a950	-0.104326844
173	0x3d96ad06	0.0735722
174	0x3da0f360	0.0785892
175	0xbcd7aa2e	-0.026326265
176	0x3daa305b	0.08310004
177	0xbdfb2175	-0.12262241
178	0x3c995e53	0.018721735
179	0x3d0fdf56	0.0351251
180	0x3cd417de	0.025890287
181	0x39d2dbfa	0.00040218217
182	0x3d8f7383	0.07004454
183	0xbd45d65b	-0.04830013
184	0x3e6f3f91	0.23364092
185	0xbcfa98a2	-0.03059036
186	0xbb93f902	-0.004515768
187	0x3c7f4ad0	0.0155818015
188	0xbd8d4900	-0.06898689
189	0x3c8e9726	0.017406058
190	0xbb611298	-0.0034343358
191	0x3d820167	0.06347924
192	0x3d995486	0.07486825
193	0xbdd09c53	-0.101860665
194	0xbc227abe	-0.009916959
195	0x3d035762	0.032065757
196	0x3e1bf6fb	0.15230934
197	0x3cde4fcf	0.027137665
198	0x3d2f8ad2	0.042857
199	0x3dea61d9	0.11444444
200	0x3c95a281	0.018265964
201	0xbdb51800	-0.08842468
202	0x3f12ef58	0.5739646
203	0x3c6b4e53	0.014361936
204	0xbce8dcff	-0.028425692
205	0x3c26839a	0.010163212
206	0xbd08821c	-0.033327207
207	0xbe28f464	-0.16499478
208	0x3d10baca	0.035334386
209	0xbdcd0163	-0.1001003
210	0x3b59d4af	0.0033238342
211	0xbb816101	-0.0039483313
212	0xbdb8d6b7	-0.090253286
213	0xbbd43c3f	-0.0064769085
214	0xbd3535d4	-0.044240788
215	0x3d3b7afd	0.045771588
216	0xbc7750b9	-0.015094929
217	0xbd16bb4e	-0.03679972
218	0x3d0f8e8f	0.035048064
219	0x3d29f5a4	0.041494027
220	0x3e346029	0.17614807
221	0xbe638711	-0.22219492
222	0x3c689414	0.014195461
223	0xbdfa943e	-0.12235306
224	0xbd4de912	-0.0502711
225	0xbd33bb79	-0.04387996
226	0xbe4a15dc	-0.19734901
227	0x3dff33d3	0.124610566
228	0x3b98c75a	0.0046624364
229	0xbe7f9220	-0.24958086
230	0xbdada39c	-0.08478472
231	0x3e6c2b5f	0.2306342
232	0x3cb6eb47	0.022328986
233	0xbc3bb2c6	-0.011456197
234	0xbe0bcb45	-0.1365176
235	0xbd668e54	-0.05628808
236	0xbc98ce0c	-0.018652938
237	0x3dcb5c5e	0.09929727
238	0x3e8d84cd	0.2764038
239	0x3c936d0e	0.017996337
240	0xbe130ffa	-0.14361563
241	0xbd2d6318	-0.04233083
242	0xbc9c8215	-0.019104997
243	0xbd72de6f	-0.05929416
244	0xbcfda200	-0.030961037
245	0x39cba917	0.0003884516
246	0xbcd5b73e	-0.026088353
247	0xbe68b8c2	-0.2272673
248	0xbda7f8cc	-0.08201751
249	0xbcac6173	-0.021042561
250	0xbd9ada3d	-0.07561157
251	0x3d72ca74	0.059275106
252	0x3cec481e	0.028842982
253	0xbda83765	-0.08213691
254	0xbd8a12a6	-0.06741838
255	0x3db2c355	0.08728663

conv1.bias f4 [32]
0	0x3e428046	0.18994245
1	0xbe96d9eb	-0.29463133
2	0xbda8de4e	-0.08245526
3	0x3e235e35	0.15953906
4	0x3e7e3918	0.24826467
5	0xbe77b3f2	-0.24189737
6	0x3f02ccb9	0.5109363
7	0xbe7916f0	-0.24325156
8	0x3e75f964	0.24020916
9	0x3edcf16c	0.4315294
10	0xbe23c2ae	-0.15992233
11	0xbee4a5ad	-0.4465765
12	0x3e54558c	0.20735759
13	0x3e5d1dd0	0.21593404
14	0x3f203a64	0.625891
15	0x3f975d29	1.1825305
16	0xbe1b5a2d	-0.15171118
17	0xbd6d1dc7	-0.057889726
18	0xbf23ddf6	-0.6401056
19	0x3e842d8c	0.25816
20	0x3e3aa87c	0.18228334
21	0xbea0e91d	-0.3142785
22	0xbe121828	-0.14267027
23	0x3e6c4189	0.23071875
24	0xbe0b9533	-0.13631134
25	0xbe419286	-0.1890355
26	0x3f46da74	0.77677083
27	0x3ec5c4eb	0.386268
28	0x3e6d4cdc	0.23173851
29	0x3e5282c1	0.20557691
30	0xbe5d791f	-0.21628235
31	0x3eef7458	0.4676845

conv2.weight f4 [32, 32, 3, 3]
0	0xbd8e7231	-0.06955374
1	0x3cc91e81	0.024550678
2	0x3d320504	0.043461815
3	0xbd84a3f6	-0.064765856
4	0x3d048463	0.032352816
5	0x3c527864	0.012846086
6	0x3d2010b5	0.039078433
7	0x3db00d4b	0.085962854
8	0xbcf8e9aa	-0.030384857
9	0xbcb76192	-0.022385392
10	0xbde52e16	-0.11190431
11	0x3bce0493	0.0062871664
12	0xbd5764ba	-0.052586295
13	0xbc6ecff6	-0.014575949
14	0xbb3d1601	-0.0028852227
15	0xbd794db8	-0.060865134
16	0x3b8795fb	0.004137752
17	0x3c678d96	0.014132878
18	0x3bf06132	0.0073358053
19	0x3c9d6899	0.019214915
20	0xbd199883	-0.037498962
21	0xbba56a98	-0.0050481074
22	0xbd906c09	-0.07051856
23	0x3da3a618	0.07990664
24	0x3cf6c688	0.030123964
25	0x3c9c8df4	0.019110657
26	0xbc9d0bba	-0.01917063
27	0x3db84574	0.08997622
28	0xbd2a8b24	-0.0416366
29	0x3ca59fba	0.020217765
30	0xbc80b024	-0.01570899
31	0xbdc7af99	-0.097502895
32	0xb9a50b22	-0.00031479547
33	0xbe0ad9a4	-0.13559586
34	0x3c236c9d	0.009974626
35	0xbd41f01a	-0.04734812
36	0xbdbc6393	-0.0919868
37	0x3d139ede	0.03604018
38	0xbdbc8ad7	-0.09206169
39	0x3d2241bc	0.03961347
40	0xbca7366d	-0.020411694
41	0xbc7c21ff	-0.015388965
42	0x3d14a1c0	0.03628707
43	0xbdc8f825	-0.09812955
44	0xbce6d051	-0.028175505
45	0xbc5921d4	-0.013252694
46	0x3d4a24d2	0.04935152
47	0xbd325351	-0.043536488
48	0x3d5fd60e	0.054647498
49	0x3db09ca3	0.08623626
50	0xbd75d91a	-0.060021497
51	0xbd1c0e86	-0.038099788
52	0x3d9d1bd0	0.076713204
53	0x3dfa1f93	0.122130536
54	0xbcf47136	-0.02983914
55	0x3d502fc2	0.050826795
56	0xbc721b8b	-0.014777075
57	0xbd4400ef	-0.047852453
58	0x3c8e6d9b	0.017386248
59	0xbc1a3fd5	-0.009414633
60	0x3ca9afb6	0.020713668
61	0xbcacd87e	-0.021099325
62	0x3c9d46d0	0.019198805
63	0xbd9f37f1	-0.07774342
64	0x3d0a0d28	0.033703953
65	0xbd730062	-0.059326537
66	0xbd38bfc4	-0.045104757
67	0xbd5cbee4	-0.053892985
68	0x3cf1eca4	0.029531784
69	0xbd288133	-0.04113884
70	0xbc038f58	-0.008029781
71	0xbae9c376	-0.0017834741
72	0xbd4c1fef	-0.04983514
73	0xbab89194	-0.0014081472
74	0xb9b21ce3	-0.00033972328
75	0xbc9fd06d	-0.019508565
76	0x3e1bd10d	0.15216465
77	0xbd78ffe7	-0.060790922
78	0x3d2cc5f5	0.042180974
79	0xbc8d6283	-0.017258888
80	0xbd7b4041	-0.061340574
81	0xbd07666a	-0.033056654
82	0xbe2bee64	-0.16790158
83	0x3d14d8ec	0.036339685
84	0xbb7ad2c1	-0.0038272592
85	0x3d8461b7	0.0646395
86	0xbc3cd3be	-0.011525093
87	0x3c7a8135	0.015289594
88	0xbc452d61	-0.012034745
89	0x3becec17	0.0072302925
90	0xbb2d17c9	-0.0026411882
91	0x3d6e1bd8	0.058132023
92	0x3d0b40f3	0.033997487
93	0x3d20bd50	0.039243042
94	0xbdef09e6	-0.1167181
95	0x3d8319a4	0.06401375
96	0x3ca18b5c	0.019719772
97	0xbc70558f	-0.014668836
98	0x39c352c1	0.00037254955
99	0xbc3544f2	-0.011063801
100	0xba6987ec	-0.00089084986
101	0x3cb06ca0	0.021536171
102	0xbe01b930	-0.126683
103	0xbc87c8b7	-0.0165752
104	0x3d803501	0.0626011
105	0x3d78f398	0.060779184
106	0x3b7c1d52	0.0038469625
107	0xbbb10282	-0.0054019103
108	0xbcadcf96	-0.021217149
109	0x3dd10418	0.10205859
110	0x3e1f332f	0.15546869
111	0xbe089cc2	-0.13341048
112	0x3d39e288	0.045382053
113	0xbd179a3e	-0.03701233
114	0xbda923b5	-0.08258764
115	0xbc6e8003	-0.014556888
116	0xbd890beb	-0.06691726
117	0x3dcf6b1a	0.1012785
118	0xbcd4e7af	-0.025989382
119	0x3d83c2be	0.064336285
120	0xbdc0d6b2	-0.0941595
121	0xbcbb01e2	-0.022828046
122	0x3c26b0f1	0.010174022
123	0xbdbd0b52	-0.09230675
124	0x3cce7a82	0.0252049
125	0x3de4ef2e	0.111784324
126	0x3c5ca163	0.013466212
127	0x3c582344	0.013192002
128	0x3d10b78c	0.035331294
129	0x3d54a4cf	0.051914986
130	0xbc844050	-0.016143948
131	0xbcdc629a	-0.026902486
132	0x3dcba954	0.09944406
133	0x3d971c39	0.0737843
134	0x3d58cf5b	0.052932125
135	0xbdd3b685	-0.10337547
136	0xbd23835f	-0.039920207
137	0xbcaf5ce2	-0.021406595
138	0xbd534046	-0.051574968
139	0xbd823d4c	-0.06359348
140	0xbda11bcf	-0.07866632
141	0x3d80d731	0.062910445
142	0xbc81962a	-0.015818674
143	0xbd3f57d0	-0.046714604
144	0xbd19ee39	-0.037580702
145	0x3d10e909	0.03537849
146	0xbd55bc9c	-0.052181825
147	0xbd49e02b	-0.04928605
148	0xbdd2ee4c	-0.10299358
149	0xbd1517fa	-0.03639982
150	0xbcbdb2c4	-0.023156531
151	0xbd360663	-0.044439685
152	0x3b6c39e4	0.0036045248
153	0x3d4cc3d6	0.04999145
154	0xbd8260bc	-0.06366107
155	0xba7fcdf4	-0.00097581674
156	0x3bd43e5b	0.00647716
157	0xbd953e14	-0.07287231
158	0xbd8a387c	-0.06749055
159	0x3c8fddff	0.01756191
160	0xbe0a1ee6	-0.1348835
161	0xbd7040a9	-0.058655415
162	0x3d74e34d	0.059787083
163	0x3d3c863c	0.046026453
164	0xbd8f6459	-0.07001562
165	0xbbac84bc	-0.0052648466
166	0x3d8c98e9	0.06865103
167	0xbd1a499b	-0.037667852
168	0xbced9550	-0.029001862
169	0x3cbf3d4b	0.023344656
170	0x3cd8287a	0.026386488
171	0xbda77026	-0.081756875
172	0x3d8659a9	0.0656007
173	0xbc9bbb45	-0.019010196
174	0x3d3a88df	0.045540687
175	0x3beaf4d8	0.007170301
176	0xbc9c92a4	-0.019112892
177	0xbd9c71ef	-0.076389186
178	0xbd384622	-0.04498876
179	0x3dbd7fde	0.09252904
180	0xbe3ede4d	-0.18639489
181	0xbd30ed9a	-0.043195345
182	0xbd5387d0	-0.051643193
183	0xbcaa8a0a	-0.020817775
184	0xbcb271cc	-0.021782778
185	0x3d85b152	0.06527962
186	0x3c340a8c	0.010988843
187	0xbc2a085c	-0.01037797
188	0xbbfa7e70	-0.007644467
189	0x3d26d318	0.04072866
190	0x3e295ad2	0.16538551
191	0x3dc144c4	0.09436944
192	0xbc9d0409	-0.019166963
193	0xbbcd9e08	-0.0062749423
194	0xbda6bf6e	-0.08141981
195	0xbc2d5687	-0.010579712
196	0xbd226eb7	-0.039656367
197	0x3d036eeb	0.0320882
198	0xbcbd47a4	-0.02310545
199	0x3bbc95f2	0.0057551796
200	0xbc212554	-0.00983556
201	0x3b84250b	0.004032736
202	0x3da827bf	0.08210706
203	0x3d7ea78a	0.062171496
204	0xbd4249ad	-0.047433544
205	0xbddcdd72	-0.10784425
206	0xbcc581e2	-0.024109785
207	0x3cb9aa15	0.02266411
208	0x3c02c885	0.007982378
209	0x3d4ea5b2	0.050450988
210	0xbbec5e91	-0.0072134216
211	0x3d5a0057	0.05322298
212	0x3cb0ba44	0.021573193
213	0x3cb733ae	0.02236351
214	0xbda4c396	-0.080451176
215	0xbdafe653	-0.08588853
216	0x3be16b0b	0.0068792156
217	0x3c905738	0.017619714
218	0x3c1fe437	0.0097590005
219	0xbd25b74e	-0.040458016
220	0xbdc315f3	-0.09525671
221	0xbd2ba144	-0.04190184
222	0x3d60ff80	0.054931164
223	0xbd8744c2	-0.066049114
224	0xbc4868af	-0.01223199
225	0x3d38b598	0.045095056
226	0x3c5b34aa	0.013379255
227	0x3e047658	0.1293577
228	0x3ca514c1	0.020151498
229	0x3d1c750e	0.03819757
230	0x3d5be120	0.053681493
231	0xbca7df1c	-0.020492129
232	0xbd8257a3	-0.06364372
233	0xbdb21585	-0.08695511
234	0xbbe609fe	-0.007020234
235	0x3da69ccf	0.081353776
236	0xbc28babb	-0.010298426
237	0x3c680be9	0.014162996
238	0x3d9f99f0	0.07793033
239	0xbde0d38c	-0.10977849
240	0x3cedde02	0.029036526
241	0xbda2d9e6	-0.07951717
242	0xbd14cee8	-0.036330134
243	0x3caaa968	0.020832732
244	0xbd5b6829	-0.05356613
245	0x3d736ff3	0.059432935
246	0xbb940099	-0.004516673
247	0x3cb82903	0.022480493
248	0xbd96950d	-0.07352648
249	0xbd421a8c	-0.0473886
250	0xbd8e14ce	-0.06937562
251	0x3cc6d923	0.02427346
252	0x3d6360e8	0.05551234
253	0xbba6b621	-0.0050876294
254	0x3bf37f87	0.007430974
255	0xbd9c92d3	-0.07645192

conv2.bias f4 [32]
0	0x3df871a5	0.12131051
1	0x3e225a9d	0.15854879
2	0xbe842028	-0.25805783
3	0xbdda78fb	-0.106676064
4	0x3c983eda	0.018584657
5	0x3e16dc9b	0.14732592
6	0xbd9b4f05	-0.07583431
7	0x3ccce479	0.025011288
8	0x3cd282a6	0.025697064
9	0xbe45e6d7	-0.1932634
10	0xbdc6dfd7	-0.09710663
11	0xbca8f1e9	-0.020623164
12	0xbd84ba18	-0.06480807
13	0x3df046a7	0.11732226
14	0x3e1e809b	0.15478747
15	0xbcf150bb	-0.02945744
16	0x3db88a4e	0.090107545
17	0x3d99a20b	0.0750161
18	0x3dad67dc	0.08467075
19	0xbeacc98f	-0.33747527
20	0x3ec042ea	0.3755105
21	0xbdd5304e	-0.10409604
22	0x3d2b82b5	0.0418727
23	0x3dda1dba	0.10650201
24	0xbdefdea8	-0.1171239
25	0x3e298b22	0.16556981
26	0xbdc1853e	-0.09449242
27	0xbe6dee28	-0.2323538
28	0x3ddf6c28	0.10909301
29	0x3c1b2368	0.009468891
30	0x3d2b8d42	0.04188276
31	0x3dbede2d	0.093197204

conv3.weight f4 [32, 32, 3, 3]
0	0x3d5c8356	0.05383619
1	0xbd5b99e2	-0.05361355
2	0xbd75bda8	-0.059995323
3	0x3d04a0c5	0.032379884
4	0x3aa30667	0.0012437821
5	0x3d3366cb	0.043799203
6	0xbc6f3a08	-0.014601238
7	0xbdd216e2	-0.10258271
8	0x3de508b1	0.111832984
9	0xbd477144	-0.048692003
10	0xbc6cdcab	-0.014456908
11	0x3da964eb	0.08271202
12	0xbd853d7a	-0.06505866
13	0x3c7859d4	0.015158135
14	0x3c80bb78	0.015714392
15	0xbdb93bd5	-0.09044615
16	0x3cb2c725	0.021823475
17	0xbca1165e	-0.019663986
18	0x3dc24f69	0.094878025
19	0x3d995862	0.07487561
20	0x3dfd5e47	0.123714976
21	0xbda642c4	-0.08118203
22	0x3d23ebde	0.040019862
23	0x3c3597cb	0.011083554
24	0x3dc15f26	0.09441976
25	0xbd9c9831	-0.07646216
26	0x3da99717	0.08280771
27	0x3d87bbeb	0.066276394
28	0x3dd7e33c	0.105413884
29	0x3d1fdf0b	0.03903107
30	0xbdbae262	-0.0912521
31	0xbdc9bff9	-0.09851069
32	0xbd4a26f3	-0.04935355
33	0xbde06e13	-0.10958495
34	0x3d0606fa	0.032721497
35	0xbe1e3a04	-0.15451819
36	0xbbbc7028	-0.0057506748
37	0x3d329297	0.04359683
38	0xbb7141cd	-0.0036812902
39	0x3bc06946	0.0058719246
40	0x3daa068b	0.08302029
41	0x3d82fbd4	0.06395689
42	0xba37a5b6	-0.0007005589
43	0xbdbfb31c	-0.09360334
44	0x3d999e60	0.07500911
45	0xbd2152cf	-0.039385613
46	0x3cbe18cf	0.023205189
47	0xbd415c4c	-0.04720716
48	0x3dad5caf	0.084649436
49	0xbce22a1d	-0.027607972
50	0x3c24eb81	0.010065914
51	0x3d4520d7	0.04812702
52	0xbd2ffc32	-0.04296512
53	0xba954d55	-0.0011390845
54	0xbd541c1d	-0.051784623
55	0x3dab228e	0.083562
56	0x3d276fd1	0.04087812
57	0x3c01ba6f	0.007917984
58	0x3cb9726f	0.022637574
59	0x3d3d4ddd	0.046216834
60	0x3da7947e	0.081826195
61	0xbc948124	-0.018127985
62	0xbd6227d6	-0.05521377
63	0xbd040f7c	-0.03224133
64	0xbd196271	-0.037447397
65	0xbd83fd91	-0.06444848
66	0xbd356524	-0.04428591
67	0xbdbe0967	-0.09279137
68	0xbd43b9d6	-0.04778465
69	0xbd146993	-0.036233496
70	0x3d29380a	0.04131321
71	0x3dbee665	0.09321288
72	0x3e19b37b	0.15009873
73	0xbde61116	-0.11233728
74	0x3c96581c	0.01835256
75	0x3b3db158	0.0028944816
76	0x3c3fef1d	0.011714724
77	0xbd056701	-0.032568935
78	0x3d1485c6	0.03626039
79	0xbd20c074	-0.039246038
80	0xbe1c5b82	-0.15269282
81	0x3cd9e8c1	0.026600244
82	0x3dd24422	0.102669016
83	0xbd5315db	-0.051534515
84	0x3db3dfe4	0.08782938
85	0xbcd47dbe	-0.025938865
86	0xbd10e6c3	-0.03537632
87	0x3c23bd58	0.009993874
88	0x3d3b3805	0.04570772
89	0x3dcbf7af	0.09959351
90	0xbd88d7cb	-0.06681784
91	0x3d51c463	0.05121268
92	0x3d433303	0.04765607
93	0xbd726b12	-0.05918414
94	0x3dadf131	0.08493269
95	0x3dd2df9f	0.102965586
96	0xbd5a2bf7	-0.053264584
97	0xbd605b18	-0.054774374
98	0x3dd665d8	0.10468644
99	0xbd2fa594	-0.042882517
100	0xba8c29ff	-0.0010693668
101	0x3bcb11f7	0.00619721
102	0x3c89c1fd	0.016816134
103	0x3dbbf46d	0.0917748
104	0x3d17d5d0	0.037069142
105	0x3c46e394	0.01213922
106	0xbd897232	-0.06711234
107	0x3d366525	0.044530053
108	0xbc8aacb4	-0.016928054
109	0xbce752a5	-0.02823765
110	0xbd0b0543	-0.033940565
111	0xbd780947	-0.060555723
112	0xbe0e05fb	-0.13869469
113	0xbda9c622	-0.08289744
114	0x3d24792d	0.040154625
115	0xbd40286d	-0.046913553
116	0xbd8210bc	-0.06350848
117	0x3d709638	0.05873701
118	0x3d2ab994	0.041680887
119	0xbd034e69	-0.0320572
120	0xbca44b5f	-0.020055471
121	0x3da314ee	0.079629764
122	0x3b43ef98	0.0029897448
123	0xbc4b50ae	-0.012409372
124	0xbd2260c8	-0.03964308
125	0xbcf891eb	-0.030343017
126	0x3d9dfd9a	0.07714386
127	0x3d934223	0.07190349
128	0xbcb8d74c	-0.022563599
129	0xbe091687	-0.133875
130	0x3e40b7bb	0.18820088
131	0xbd6ddcb7	-0.05807182
132	0x3b8cfaf4	0.004302377
133	0x3c853445	0.016260276
134	0xbd1c200b	-0.038116496
135	0xbdc5b623	-0.096538804
136	0x3d878a3a	0.066181615
137	0x3c0b5b2f	0.008505627
138	0x3ce714d0	0.028208166
139	0xbdaf7c92	-0.08568682
140	0xbca65610	-0.02030471
141	0x3d0d1e99	0.03445301
142	0x3da8e1a1	0.0824616
143	0x3e249688	0.16073048
144	0xbdcae973	-0.09907808
145	0x3db6d1d2	0.08926739
146	0x3ce79754	0.028270401
147	0x3d158efd	0.036513317
148	0x3d0272df	0.03184783
149	0x3db52842	0.08845569
150	0xbd4f01d7	-0.050538864
151	0xbc3e52d6	-0.011616429
152	0xbd839fd9	-0.06426973
153	0xbd02b50b	-0.031910937
154	0x3d9c1d7d	0.07622812
155	0x3cfe62bd	0.031052941
156	0x3c02184d	0.007940364
157	0x3d5d8012	0.054077215
158	0xbc07950a	-0.00827528
159	0xbc161bfc	-0.009161945
160	0x3cdc4dbb	0.026892534
161	0xbdf2cb23	-0.118551515
162	0x3d50b850	0.050957024
163	0xbcc7e890	-0.024402887
164	0xbcf14a15	-0.02945427
165	0xbdb77fba	-0.08959909
166	0x3e01bb52	0.12669113
167	0x3b66c1b9	0.0035210683
168	0x3cea443a	0.028596986
169	0xbda80937	-0.082048826
170	0x3dac04ac	0.083993286
171	0xbda6f897	-0.081528835
172	0x3d10dce8	0.035366923
173	0x3cb128bd	0.02162587
174	0xbda65c4f	-0.08123075
175	0x3da2f16a	0.07956202
176	0xbcf22db5	-0.02956281
177	0xbdfc7467	-0.123268895
178	0x3c98f4e8	0.018671468
179	0x3d44d824	0.04805769
180	0xbd0d8bb5	-0.034557063
181	0x3cb0d27e	0.021584745
182	0xbba23e0a	-0.0049512433
183	0x3dc650fd	0.09683416
184	0xbde9b21b	-0.11410924
185	0x3cf938a9	0.030422525
186	0x3d73c9a1	0.05951846
187	0x3c8286c8	0.01593341
188	0x3c85e2c0	0.016343474
189	0xbd347510	-0.044056952
190	0x3d204d6a	0.039136328
191	0x3d63e1e8	0.055635363
192	0x3cd2de0b	0.025740644
193	0x3e0e56e7	0.13900338
194	0xba8b80b8	-0.001064322
195	0xbd240fd7	-0.04005417
196	0xbdac3796	-0.0840904
197	0x3c0c0790	0.008546725
198	0xbdb3308d	-0.08749495
199	0xbc9e817c	-0.019348852
200	0xbd07a963	-0.033120524
201	0xbc6542a0	-0.013992935
202	0x3c837eaf	0.016051618
203	0xbd246daa	-0.040143646
204	0xbd4aaed9	-0.049483154
205	0xbcca93b7	-0.024728639
206	0xbdd01b69	-0.10161478
207	0xbdaf2a1e	-0.08552955
208	0x3de8687c	0.11348054
209	0xbc5d98b4	-0.013525177
210	0xbd33ecff	-0.04392719
211	0xbc3840dd	-0.011245933
212	0xbd48481b	-0.04889689
213	0x3dc97b6f	0.09837996
214	0xbce38cac	-0.027777039
215	0xbd54bb0e	-0.0519362
216	0x3dce47db	0.10072299
217	0xbd410c8c	-0.047131106
218	0xbd5caf08	-0.05387786
219	0x3ce99e2e	0.028517809
220	0xbd9a81b9	-0.07544274
221	0x3ca339e2	0.019925062
222	0x3ce003a7	0.027345492
223	0x3c4dac01	0.012553216
224	0x3c8f3bcf	0.017484574
225	0xbcb5a6dd	-0.022174293
226	0xbc25f65e	-0.010129539
227	0x3cb486f7	0.022037013
228	0x3bc2b917	0.0059424746
229	0xbb980c36	-0.0046401275
230	0xbd4ca6da	-0.04996381
231	0x3c448a8f	0.011995926
232	0x3d32de05	0.043668766
233	0xbd4229ca	-0.047403134
234	0xbb62280c	-0.0034508733
235	0xbdbc57d0	-0.091964364
236	0x3d1ddc6e	0.038540296
237	0x3e27e12a	0.16394487
238	0x3c8cefbc	0.017204158
239	0x3d377d4d	0.04479723
240	0xbcf015b4	-0.029307224
241	0xbd0995f6	-0.03359028
242	0x3cc2a510	0.023760349
243	0xbde552e7	-0.11197453
244	0x3df57517	0.11985224
245	0x3a23e398	0.00062518707
246	0xbcb0defa	-0.021590699
247	0xbd7a9795	-0.061179716
248	0x3bc6326b	0.0060484908
249	0xbd6a2a65	-0.057169337
250	0x3d9df3f1	0.07712544
251	0xbd096178	-0.03354022
252	0x3d63acee	0.05558484
253	0xbd0eca15	-0.03486069
254	0x3d279e19	0.040922258
255	0xbdbf441f	-0.09339165

conv3.bias f4 [32]
0	0x3de55af5	0.11198989
1	0x3dff293c	0.12459037
2	0xbe019f8b	-0.12658517
3	0x3dfc3a48	0.12315804
4	0x3dcdc6a0	0.1004765
5	0x3dca9dc9	0.098933764
6	0xba825300	-0.0009942949
7	0x3d8f8acc	0.07008895
8	0xbd9eea09	-0.077594824
9	0x3db8c82f	0.09022557
10	0xbdeffdd4	-0.11718336
11	0x3d8387aa	0.0642236
12	0xbd4d297b	-0.050088387
13	0x3d5afbe0	0.053462863
14	0x3dc7113f	0.09720086
15	0x3de4f849	0.11180169
16	0x3e171a2b	0.14756076
17	0xbd06da7b	-0.032923203
18	0xbe33222d	-0.17493506
19	0x3da08a0d	0.07838831
20	0x3d5e4561	0.054265384
21	0xbc8481f1	-0.016175242
22	0x3d4a3ac8	0.049372464
23	0xbdfbfd55	-0.123041786
24	0xbdc9f177	-0.09860509
25	0x3da76c61	0.081749685
26	0xbd5bf82a	-0.053703465
27	0x3dcf8551	0.1013285
28	0x3e05557b	0.1302089
29	0x3d40173e	0.046897165
30	0x3dd96b9f	0.1061623
31	0xbd488899	-0.048958395

out_conv.weight f4 [3, 32, 1, 1]
0	0x3e816594	0.2527281
1	0x3ee32029	0.44360474
2	0xbed9ea82	-0.42561728
3	0x3dfcf605	0.12351612
4	0x3e39cf09	0.18145384
5	0x3e967010	0.29382372
6	0x3df52a54	0.11970964
7	0x3e72f6e2	0.23726991
8	0xbe5b11a0	-0.21393442
9	0x3ea84843	0.3286763
10	0xbdc91605	-0.09818653
11	0x3d00eb23	0.031474244
12	0xbe020ec7	-0.1270095
13	0x3dd16c30	0.10225713
14	0x3e90ceea	0.28282863
15	0x3e5bee65	0.21477659
16	0x3f09965d	0.5374506
17	0xbd31e5b2	-0.043431945
18	0xbe742492	-0.23842075
19	0x3e3e8f51	0.18609358
20	0x3dc6abc0	0.097007275
21	0x3d1c795c	0.038201675
22	0x3e0c74e7	0.1371647
23	0xbe7531cb	-0.23944776
24	0xbe78debd	-0.24303718
25	0x3e07bcaf	0.13255571
26	0x3ea9f5d2	0.3319536
27	0x3e93bfc2	0.28857237
28	0x3eaa1832	0.33221585
29	0x3dabb764	0.08384588
30	0x3e62f054	0.2216199
31	0xbe2d3f63	-0.16918711
32	0xbe61571f	-0.2200589
33	0xbe5e86f0	-0.21731162
34	0x3e4928d9	0.19644488
35	0x3db41597	0.087931804
36	0xbe9167ad	-0.2839941
37	0x3e01525a	0.12629071
38	0xbee0502f	-0.43811175
39	0x3ec4d49e	0.38443464
40	0x3e7b58e4	0.24545628
41	0xbe202c13	-0.15641813
42	0x3e1c11c8	0.15241158
43	0x3ee4f5f3	0.44718894
44	0xbf055c18	-0.5209365
45	0xbeafa09d	-0.34302226
46	0x3e905d08	0.28195977
47	0xbd314a42	-0.04328371
48	0x3f031661	0.5120602
49	0x3e73e553	0.23817949
50	0xbeb59bc6	-0.35470408
51	0x3c99e6d3	0.018786823
52	0xbd97a0a7	-0.07403689
53	0x3ead4ea7	0.3384907
54	0xbefae716	-0.4900443
55	0xbf2b907e	-0.6701735
56	0xbe47af66	-0.19500503
57	0x3edfc243	0.43702897
58	0xbf1c99fc	-0.6117246
59	0xbc15db57	-0.009146533
60	0x3dea405e	0.11438058
61	0xbde1384c	-0.10997066
62	0xbd8d12f8	-0.068883836
63	0x3e9e7234	0.30946505
64	0xbee0fdd2	-0.4394365
65	0x3e026ad1	0.1273606
66	0xbd338f51	-0.04383785
67	0xbf03e7ba	-0.5152546
68	0xbe602e4f	-0.21892665
69	0xbd5df5eb	-0.054189604
70	0x3f331213	0.69949454
71	0xbc652600	-0.013986111
72	0x3e8ed75e	0.27898687
73	0xbdbc697a	-0.091998056
74	0x3ed0dd32	0.4079376
75	0x3d9e915a	0.07742567
76	0x3dab2f4f	0.08358633
77	0x3da4ee1c	0.08053228
78	0x3e0830df	0.13299893
79	0x3d0d4dba	0.034497954
80	0xbcb7bcaa	-0.02242883
81	0xbe0a6a1e	-0.13517043
82	0xbe8eaa0a	-0.27864105
83	0x3e75f0a0	0.24017572
84	0x3d8baf5e	0.06820558
85	0xbe41ee4b	-0.18938558
86	0x3efba69b	0.49150547
87	0xbe6d3531	-0.23164822
88	0xbd00c9dd	-0.03144251
89	0x3e9da95f	0.30793282
90	0xbe5aae37	-0.2135552
91	0xbdc951f5	-0.09830085
92	0x3d9521ae	0.072818145
93	0xbdb8f36a	-0.090308025
94	0xbe1cde43	-0.15319161
95	0xbde316b3	-0.11088314

out_conv.bias f4 [3]
0	0x3e88911d	0.26673213
1	0x3d6476d0	0.05577737
2	0x00000000	0.0
