navier_sgd_model.pth (torch, 81675 bytes, 8 tensors)

conv1.weight f4 [32, 3, 3, 3]
000000 7c d1 9a 3c 10 b0 1d be 8b 12 c4 bc 76 d0 db bd
       0.018898718 -0.15399194 -0.023934623 -0.1073312
000010 f2 28 dd 3c 71 c7 96 3d 80 8d 21 bc cf a8 00 3d
       0.026997063 0.07362259 -0.009860396 0.03141099
000020 4d 9f 4d bd 5c 7d 34 3d 60 0e 3a be 7f 28 25 bc
       -0.05020075 0.044064865 -0.18169546 -0.010080456
000030 05 19 a0 3d b6 78 47 3e f8 45 1d be 9b 00 9e 3c
       0.07817272 0.19479641 -0.15358722 0.019287398
000040 bd 01 0d be 45 37 4a bd 3d d9 14 bd 4b c6 1a 3d
       -0.13770194 -0.049369115 -0.036339987 0.037786763
000050 c8 50 2f bc bd 0c 20 ba 59 fc bf bd 39 03 cc bc
       -0.010700412 -0.0006105414 -0.09374303 -0.02490388
000060 1c 42 f9 3c a3 20 d4 bd 41 18 22 3d 6c 8b c3 3c
       0.030427031 -0.103577875 0.03957391 0.023870192
000070 05 d3 12 bc fa 59 a0 3d d1 c4 e3 3d 2e f8 f8 bd
       -0.008961444 0.07829662 0.11121524 -0.121567115
000080 f7 a1 df bd 5d f6 01 bd d0 af 2d 3d 64 40 98 3d
       -0.10919564 -0.03172909 0.042403996 0.074341565
000090 ae 35 23 3e d4 47 9b bd 01 13 6a 3d f1 3d 80 3d
       0.15938446 -0.075820595 0.05714703 0.062618144
0000a0 dd 05 8a 3d e6 de 70 3d 7c ae c8 3d 6f 5a 12 3d
       0.067393996 0.058806323 0.09798905 0.035730775
0000b0 5c 96 b7 bd 41 f6 00 3e 6b b2 0a bc c2 07 9b bd
       -0.08964226 0.12593938 -0.00846539 -0.07569839
0000c0 06 8b dd bb e9 42 70 3d 41 85 88 3c 8a 5a ca bc
       -0.0067609577 0.05865756 0.016665103 -0.024701376
0000d0 56 b6 50 bc 93 61 11 3c 1e e6 75 3c 97 3e 25 3e
       -0.012738785 0.008873361 0.0150084775 0.16137157
0000e0 ce c6 d8 3c bf 26 b3 3c 29 3d 1b 3e bb db ba 3c
       0.026461985 0.021869062 0.1516005 0.022809854
0000f0 60 33 c7 39 1e 42 fa bd 8e 4f e4 bd 09 21 78 3d
       0.00037994515 -0.12219642 -0.11147986 0.06057838
000100 77 56 b6 3c 90 a8 d9 3d 65 79 0d be 31 40 1e bb
       0.022258027 0.10627854 -0.1381584 -0.0024147148
000110 ec 7f 1c 3e f1 20 44 bd 7a e6 20 be a8 32 f5 3d
       0.15283173 -0.047882978 -0.1571292 0.119725525
000120 c3 e9 2b bd 8b dc cf 3d b1 44 f8 bc 75 59 ae 3a
       -0.04197098 0.10149487 -0.030306192 0.0013301807
000130 9b 12 bc 3c 67 01 1e bc 30 ad 09 bd d3 7f 16 be
       0.02295809 -0.009643889 -0.03361243 -0.14697199
000140 89 11 21 bd 81 bb 6b 3d c3 06 9c bd 1e 96 03 bd
       -0.039323363 0.057551865 -0.07618477 -0.032125585
000150 51 98 8e 3d 88 12 08 3e f7 41 6f 3d fa d5 b1 bd
       0.06962646 0.13288319 0.05841252 -0.08683391
000160 9f 3b 7b bb 25 37 94 3d 44 dc c9 bc 79 9c c5 3c
       -0.0038335097 0.072370805 -0.024641164 0.024122464
000170 13 c3 5b bb 43 97 a3 bd ae 96 c4 bd 5d 44 8c bd
       -0.0033533021 -0.07987835 -0.09599052 -0.06848977
000180 a2 56 24 3d bc 30 ff bb 2e e5 dd 3c b3 96 97 3d
       0.040121682 -0.007787792 0.02708682 0.074017905
000190 13 40 a4 3d 9c ed 68 bd bd 33 b3 bd ed d2 61 3c
       0.08020034 -0.056867227 -0.08750103 0.013783199
0001a0 1b e8 45 ba ff bf fd bb b8 99 cb 3d a9 78 7f 3d
       -0.000754954 -0.007743835 0.09941429 0.06237093
0001b0 91 ce c8 3c 75 40 56 bd c4 0c d7 3b 61 26 0f be
       0.024512561 -0.052307565 0.006562801 -0.13979484
0001c0 bf e7 86 bc 6c 4f 35 3c 66 ca 37 bd 15 56 5c be
       -0.016467927 0.011066299 -0.044870757 -0.21517213
0001d0 e3 1b d5 bd 06 a8 34 3d 08 dc 1d 3d aa 6a 0f bd
       -0.104057096 0.044105552 0.038539916 -0.035013832
0001e0 49 25 95 3c ce 31 5c bd 23 60 84 3d ad cb 2a bd
       0.018206256 -0.053758435 0.06463649 -0.041698147
0001f0 97 3d 82 bd a5 af 21 bd bb 98 a2 3d fa 4e ee 3c
       -0.063594036 -0.03947415 0.07939287 0.029090393
000200 d9 ef c0 3c b5 a6 e8 bd 16 3f d6 3c f4 0f eb bd
       0.023551868 -0.11359922 0.026153129 -0.11477652
000210 87 9e 67 3e b4 e1 db bc 11 41 00 be 6e 5a 38 3e
       0.22619067 -0.026841022 -0.12524821 0.18003246
000220 f5 b7 0c 3d 48 4e 76 3d 78 c4 6b 3d 23 9a a1 bd
       0.034355123 0.06013325 0.057560414 -0.07890727
000230 9c 2b d3 3d 52 e5 ea 3b 55 5d 98 3d d6 09 d4 3d
       0.10311052 0.0071684504 0.07439677 0.103534386
000240 89 1a 17 3d c8 39 d3 3d d9 12 73 3c 5c 32 ca bd
       0.03689054 0.10313755 0.014836037 -0.098728865
000250 19 c9 1f be f5 93 d1 bc a7 98 ae 3d ba b9 be bd
       -0.15604056 -0.025583247 0.0852521 -0.09312768
000260 c8 3c 6c 3d 9a 03 3f 3d 0a 2a e9 bc 42 d6 f0 bd
       0.057675153 0.046634294 -0.028462429 -0.117596164
000270 e8 03 93 3d 6a bf a3 3d 98 1e 0b bd 56 28 58 3c
       0.071784794 0.07995494 -0.033964723 0.013193211
000280 da 80 a3 37 a3 91 cb 3d d1 fd 2e 3d f1 19 5a bd
       1.9491115e-05 0.099398874 0.042722527 -0.053247396
000290 03 85 35 bd 0f da 0f bd 83 89 eb 3d 58 43 c5 3d
       -0.044316303 -0.035120066 0.11500838 0.096319854
0002a0 71 36 93 3d 95 cd c7 3d 7a 90 56 bc 46 50 e3 3b
       0.07188118 0.097560085 -0.013095969 0.0069370596
0002b0 f8 92 4f bd 1b 6f 58 3d 0a 4f c8 bd 27 c1 6d 3c
       -0.05067727 0.052840333 -0.097807005 0.014511383
0002c0 c2 a5 87 ba 76 67 8d bd 96 2b d8 bb 74 8c 28 bd
       -0.0010349082 -0.06904499 -0.0065969927 -0.04114957
0002d0 aa 58 10 3d 5f 23 ab 3d 86 d6 05 bd 77 fc bd bd
       0.035240807 0.08356356 -0.03267529 -0.092766695
0002e0 4e d2 70 3d ec f9 a1 bd b3 d7 e5 3c e9 97 9e bd
       0.058794312 -0.07908997 0.028056955 -0.07743818
0002f0 40 ce 7c bc 79 19 41 3e 2d a6 81 bd 7c 4a 6d be
       -0.015430033 0.18857373 -0.06330524 -0.23172945
000300 6b e5 c3 bd 4e 5e 4f bd f5 73 17 bd e4 47 0c 3e
       -0.095652424 -0.050627045 -0.03697582 0.13699299
000310 23 99 a8 3d 50 56 9d bc cd 57 99 bc 59 8e a4 bd
       0.082323335 -0.019206196 -0.018718624 -0.08034963
000320 42 f6 59 3d ea 46 10 be 09 ac b0 bd 31 b5 7c bd
       0.053213365 -0.14089552 -0.08626563 -0.061696235
000330 45 74 0d 3d 18 87 91 bc b6 3a 77 bd 91 b3 4b bd
       0.03453471 -0.017764613 -0.060358725 -0.049731795
000340 10 08 81 3d ed 6f 1e bd e7 c3 0a 3e ee 20 a3 3c
       0.06300366 -0.03868096 0.13551293 0.019913163
000350 7b c0 c6 3d 7e 35 64 3d 35 9f 04 3d e6 1b 06 be
       0.097046815 0.055715077 0.032378394 -0.1309658
000360 58 13 4c 3d 06 0e 5c 3b ce 51 27 be 93 8b 8e 3c
       0.049823135 0.0033577695 -0.163398 0.017400539
000370 21 8e c5 bd 5a e8 27 bd f2 03 ba bd 59 1c 86 bc
       -0.096462496 -0.040993072 -0.09082784 -0.01637094
000380 6a 37 a6 3d c0 fa ba bd dc 1d 62 3d a2 a7 40 bd
       0.08116038 -0.09129858 0.055204257 -0.047034867
000390 c8 0a af bd 0d 37 10 be b1 eb e0 3c 1c db d6 bd
       -0.08546978 -0.140835 0.027456136 -0.104910105
0003a0 af 62 d7 3d 1d c1 d3 bd 4d 4f e9 3d 1c bb 04 be
       0.10516869 -0.10339568 0.113920785 -0.12962002
0003b0 a9 3c de 3d ba bc 9d b9 ea 7a 7b bc 03 7d 1e 3d
       0.10851414 -0.00030085986 -0.015349129 0.03869344
0003c0 23 9f c8 3c f6 76 b1 bd 96 60 dc 3c b9 14 ca 3d
       0.024489945 -0.08665268 0.026901525 0.09867234
0003d0 ee 3c a6 bc d2 08 3d 3d 88 52 17 3d c7 de 0e bd
       -0.020292725 0.04615099 0.036943942 -0.034880426
0003e0 9e 95 6d bc 7f 9f ce bd 0e 0a e1 3d 7c d5 13 bc
       -0.014501004 -0.10089015 0.10988246 -0.009023067
0003f0 ea 52 0a be 76 25 04 3d b8 c9 07 3e e4 7c c3 bd
       -0.13508192 0.032262288 0.13260543 -0.09545305

conv1.bias f4 [32]
000000 35 8d 6e b8 bc af 63 3b c8 15 50 3c 40 b0 1d ba
       -5.687513e-05 0.0034742197 0.012700506 -0.0006015338
000010 87 6c c5 3b 42 d1 34 bb 20 55 3e bb e0 73 c1 3a
       0.0060249004 -0.0027590548 -0.0029042438 0.0014759265
000020 2e be 8e ba 9c 05 e9 3b 69 cb 23 bb f8 1e b4 3a
       -0.0010890418 0.0071112644 -0.0024993068 0.001374214
000030 8b 59 f9 3a d4 69 d5 bb 71 62 cc 3b 2c f8 b2 38
       0.0019023878 -0.00651286 0.006237321 8.533927e-05
000040 69 29 fd bb e1 05 22 39 f3 18 08 bc c0 ba e3 3a
       -0.0077258837 0.00015451714 -0.00830673 0.0017374381
000050 03 79 2b bb 70 c9 3c 3b 1a d6 51 3c 30 c1 a5 3b
       -0.0026164658 0.002880659 0.012807393 0.00505843
000060 c8 80 b5 bb 83 97 81 3a 8e a4 f2 3b 97 5d 54 ba
       -0.0055390336 0.0009887073 0.0074048704 -0.0008101104
000070 5f 74 95 ba cc 0a 92 bb fa 72 13 3b 79 b3 90 bb
       -0.0011402479 -0.0044568535 0.0022498951 -0.004415926

conv2.weight f4 [32, 32, 3, 3]
000000 96 08 8a bc 1c 91 59 3d a0 ad 00 bd 4c b0 ba 3c
       -0.016849797 0.053116903 -0.03141558 0.022789143
000010 4c 90 9d 3d ad 85 81 3b ef 55 da bd 68 4d db bc
       0.07693538 0.003952703 -0.10660922 -0.026770309
000020 e5 fc 6d 3d 5f 1b e7 3d 49 db 58 3d 73 b3 0e 3d
       0.058102507 0.112845175 0.0529435 0.034839105
000030 dc 8b 20 bd 94 db ce bc 9f 2e b7 bd 8b cb 57 bd
       -0.03919588 -0.025251187 -0.08944439 -0.052684348
000040 11 18 b8 3d 1a 15 f2 3b db 6f 3d 3d dd f6 3d bd
       0.08988965 0.0073877694 0.04624925 -0.046378005
000050 76 6f cb 3b 27 2e 1f 3c 88 8a c3 3d 20 93 f5 bc
       0.0062083555 0.009715593 0.09547907 -0.029977381
000060 db e0 42 bd 9d 27 aa bc 2e 95 56 3d 39 6a 92 3d
       -0.04757772 -0.020770842 0.052388363 0.071491666
000070 91 68 e3 3a 13 4b 1b 3e 91 36 96 3d 29 20 d8 3b
       0.0017349889 0.15165357 0.073346265 0.0065956307
000080 4e b1 73 3b a1 99 dc bc c3 1d 76 bd e8 49 69 bd
       0.003718454 -0.026928725 -0.060086977 -0.056955248
000090 22 e5 0d bc 71 27 a1 bd 90 0a a1 bd a0 66 6b 3d
       -0.008660587 -0.07868851 -0.07863343 0.057470918
0000a0 55 60 15 bd 9e 39 8c 37 0d 15 4a bd 17 62 0e bc
       -0.036468823 1.671613e-05 -0.04933648 -0.008690379
0000b0 50 80 e0 bb ed 86 e6 bb 27 f2 13 bd c1 2f 3d be
       -0.0068512335 -0.0070351274 -0.036119606 -0.18475248
0000c0 cc f7 60 bd fb c4 41 3d cb 89 34 bd 11 bc da 3c
       -0.054923818 0.047306996 -0.044076722 0.026701005
0000d0 ec b8 03 bd 6c e7 7e 3c 94 ff 84 3b 74 f6 e6 3c
       -0.032158777 0.015558105 0.0040587876 0.02819369
0000e0 75 0d 0b 3d 87 41 80 bd 22 9c 2c 3d 95 ef 28 3d
       0.03394838 -0.06262498 0.042141087 0.04124411
0000f0 af f5 b5 3d db 6c 70 bc 14 e1 44 3c ed a5 15 3d
       0.08884751 -0.014674391 0.012016553 0.036535192
000100 d3 b6 d7 3c 66 1d 5f bd 13 9b 02 3e 7d c5 b6 3d
       0.026332295 -0.054471396 0.12754469 0.08924387
000110 1f c4 b6 3d 9e 8d a6 ba 3a 90 5d bb 98 27 0d 3d
       0.08924126 -0.0012707 -0.003380789 0.034461588
000120 1b 39 61 ba 9e 9f cf bd 48 84 01 3d c2 04 11 be
       -0.0008591578 -0.101378664 0.031620294 -0.14161971
000130 cf f1 2b bd 5b 31 51 3d 13 62 40 3d 31 27 8e bc
       -0.041978654 0.05107246 0.04696853 -0.017352672
000140 60 79 1f 3d b4 62 f9 bc 02 46 71 3d 0d ed a0 bc
       0.03893411 -0.030442573 0.058904655 -0.019644285
000150 00 b4 41 bd 5c 58 0f bd 3e b6 33 3d 4c 46 59 bd
       -0.047290802 -0.034996375 0.04387497 -0.053045556
000160 e8 e6 9c bd d1 1a a2 3c 14 39 01 bc ea a8 05 3c
       -0.07661229 0.019788178 -0.007887144 0.008157948
000170 98 00 df bc 08 e6 9d 3d 69 7a fe 3c 50 b1 8a bc
       -0.027221963 0.077098906 0.03106423 -0.016930252
000180 bc 8c e2 bd a1 bd 3c 3d 45 55 31 bd 1c fa e5 bd
       -0.11061999 0.04607928 -0.04329421 -0.11229345
000190 98 00 52 3d 15 c5 99 bc 8d dd 54 3d 14 43 c3 bd
       0.051270097 -0.018770734 0.0519691 -0.095342785
0001a0 ab 8c a3 ba 08 ce 53 3c bd b6 5e bd ae c1 45 3d
       -0.0012477835 0.01292754 -0.05437349 0.04828041
0001b0 a3 00 9a bc c0 87 3c bd ea cb 1a 3c af 21 4a 3d
       -0.018799132 -0.0460279 0.009448031 0.04934853
0001c0 eb d0 c6 bd 0a 2a 8c bb 31 30 d4 bb 84 43 12 3e
       -0.09707817 -0.0042774724 -0.0064754714 0.14283568
0001d0 e1 e4 55 bd 3d 67 b6 bc 06 c5 2a 3e fb 50 fc 3c
       -0.05222023 -0.022266025 0.16676721 0.030800333
0001e0 62 60 4e 3d 24 f3 bc bd f7 5e 5b bd d2 6c e7 bb
       0.050384887 -0.09226063 -0.053557362 -0.007062533
0001f0 66 fa b2 bc 1e 7b b3 3c 37 e5 bb bd 19 f0 24 3c
       -0.021847915 0.021909293 -0.09174579 0.010067009
000200 6d 36 40 bd c5 b5 4c bd 9e d3 5d bc 04 f8 f3 3b
       -0.046926904 -0.049978036 -0.013539223 0.0074453373
000210 15 72 7b bd 29 25 88 3d 2b 07 69 3d e6 e1 09 bc
       -0.061388094 0.06647713 0.0568916 -0.008415675
000220 bb b4 86 3d e7 71 10 3d 0e 02 11 3d cd 4b 87 3b
       0.0657744 0.035264876 0.03540235 0.004128909
000230 7d 6c 0e bd a7 57 6b 3d 4f c5 b2 3d 7d 47 0a 3c
       -0.03477143 0.05745664 0.0872904 0.008439896
000240 6f b9 2f bc 87 49 d3 3d a3 d5 34 bc 1e ec 7f bd
       -0.010725363 0.103167586 -0.011037263 -0.06248104
000250 92 cd 78 3d b6 08 b9 bb dd 72 80 3d 3f c7 b2 bb
       0.060742922 -0.0056467904 0.062719084 -0.005455881
000260 04 a7 79 bd f8 39 4c bd 2e d7 8a bd 71 c2 2f 3d
       -0.060950294 -0.04985997 -0.067793235 0.042910043
000270 90 af 90 bd 09 75 35 3b 63 02 14 bd ab c5 fc bc
       -0.07064736 0.0027688167 -0.03613509 -0.030855974
000280 52 ed 79 bc 47 9d 0e 3d ff 70 cb 3c a0 40 24 bd
       -0.0152543355 0.03481796 0.024834154 -0.040100694
000290 0f 99 01 bd f1 14 29 3d 53 a5 5d 3d 16 de 57 bc
       -0.03164011 0.041279737 0.054112744 -0.013175508
0002a0 05 7e 70 3b 27 12 75 3d ab 82 44 3d 3d 81 6b 3d
       0.0036696207 0.059831765 0.047976177 0.057496298
0002b0 38 f6 13 bd cc 13 9e bd d6 23 25 3d 8c 14 d6 3d
       -0.036123484 -0.0771862 0.04031738 0.10453138
0002c0 20 93 28 3d 20 7a 07 ba 31 17 bb bd d9 4e f1 ba
       0.041155934 -0.00051680394 -0.09135283 -0.0018410339
0002d0 45 bd d7 3c 3a 38 18 bd 58 55 d9 bc a3 a1 ba 3d
       0.026335368 -0.037162997 -0.026529953 0.09112861
0002e0 71 12 97 bd eb 84 a0 3c e9 86 55 bd e4 16 58 bc
       -0.07376564 0.01959463 -0.052130613 -0.013189051
0002f0 78 f0 49 bc 29 fe a8 3d 60 21 82 bc 8b 98 a6 3d
       -0.012325399 0.08251602 -0.015885055 0.08134564
000300 dc a2 ae 3c 9b 17 7a 3d 5d 74 6a 3d f0 59 2a bd
       0.021317892 0.06105767 0.05723988 -0.041589677
000310 d3 6a 23 bd ce 06 82 bc d8 55 aa 3d f5 3d 50 3d
       -0.039896797 -0.015872385 0.08317155 0.050840337
000320 c8 29 0d 3d a9 8b 90 3c e0 6b 9d bd be e6 12 3b
       0.034463674 0.01764472 -0.07686591 0.0022415365
000330 c0 b6 19 bc 55 bc 0d 3c b5 b3 db 3c 38 74 f2 bc
       -0.00938195 0.008650859 0.02681909 -0.029596433
000340 91 4f df bb 7c bf f3 bc 6d 1e b7 3d 01 60 de 3c
       -0.006814905 -0.029754393 0.0894135 0.027145388
000350 fa b1 ed bc 78 ab 92 bb 8a d3 70 bc ff 7a 03 3d
       -0.02901553 -0.004476007 -0.014698872 0.03209972
000360 1b e1 06 be ef 95 62 3d cf 29 2d 3d e9 0d 40 bd
       -0.13171808 0.05531877 0.0422762 -0.046888266
000370 64 79 5c bc 6e 43 0b bd 00 9f 80 bd ca f0 4d bd
       -0.013456676 -0.033999853 -0.06280327 -0.050278462
000380 72 6b be 3d 2b d7 61 3d 2d fd 06 bd 17 6f fb 3c
       0.09297837 0.05513684 -0.03295629 0.03069262
000390 3e 4e 44 3d 2b 66 b3 bd 7b 0c be 3c a9 95 68 3d
       0.04792618 -0.08759721 0.02319931 0.056783352
0003a0 84 e7 47 bc f2 c3 09 3d 61 08 39 3d cc 92 82 bd
       -0.012201194 0.033634134 0.045174006 -0.063756555
0003b0 62 82 bb 3c 53 96 9a bd 2d 77 37 bd 24 94 f5 bc
       0.02288932 -0.07548203 -0.04479139 -0.029977866
0003c0 e7 35 e8 bd 93 fd d0 b7 72 b1 0e bd 80 f4 88 bd
       -0.11338406 -2.4913612e-05 -0.034837194 -0.0668726
0003d0 b7 f5 4f bd 08 e2 96 bd f5 0c 5b bc 08 d4 68 3d
       -0.05077144 -0.07367331 -0.013369788 0.056842834
0003e0 54 9d 06 3d 50 b1 23 3e 09 2b ae 3d a2 3a 4f 3b
       0.032864884 0.15985608 0.08504302 0.0031620641
0003f0 b7 77 f3 bd d8 30 f5 3d c8 4d 8d 3b 4c d2 aa 3c
       -0.11888068 0.11972207 0.0043122508 0.02085223

conv2.bias f4 [32]
000000 e2 94 bd bb 85 d5 45 3c 13 d2 79 3c 41 67 ca 3c
       -0.0057855705 0.012074833 0.0152478395 0.024707438
000010 72 f1 d4 3c 75 33 8c ba 9e bc 96 bc 10 b9 80 3c
       0.025994036 -0.0010696488 -0.018400487 0.015713245
000020 8f a3 85 3c cf dd 80 bc fa a7 dc bb b2 0c 89 3b
       0.016313342 -0.015730767 -0.0067338916 0.0041824216
000030 ec 73 f7 bc d7 ea a0 bb 35 c2 94 3c 1a 2b eb bb
       -0.030206643 -0.0049108076 0.018159011 -0.007176769
000040 45 04 b5 3b 23 a4 67 bc 8f df 61 3b 12 9f a6 3c
       0.0055241906 -0.014138254 0.0034465527 0.020339523
000050 eb e7 b5 bb 25 30 01 bc ff ed a1 bc af 74 03 3b
       -0.0055513284 -0.007885014 -0.019766806 0.0020058563
000060 3d 6f 81 ba f4 85 45 bc b4 51 cd bb 68 3b d2 3b
       -0.000987507 -0.012055863 -0.0062658433 0.006415773
000070 0e 99 31 bc d3 d4 a8 39 5b 67 05 3d 57 1a 92 3c
       -0.010839714 0.00032202023 0.03256927 0.017834825

conv3.weight f4 [32, 32, 3, 3]
000000 3f d5 e2 bd c2 58 a8 ba 76 05 9d 3d 4f cc e8 bc
       -0.1107583 -0.0012843835 0.07667057 -0.028417734
000010 8d 30 32 3e 03 29 9c bc 17 ea 16 bb b3 39 00 3d
       0.17401333 -0.019062525 -0.0023027712 0.031305026
000020 10 47 98 3d 2b cc 87 3b 0a 1f 81 bd 9f 7f 29 3e
       0.07435429 0.0041442118 -0.06304748 0.1655259
000030 5e 91 07 bc c9 7c ca bd 28 9c 48 bd 8d 78 75 bd
       -0.008274404 -0.09887082 -0.048977047 -0.05992942
000040 52 e7 39 3d 8a 9a 88 3d df 62 06 3d 76 7f a2 3c
       0.04538662 0.06670101 0.032809135 0.019836169
000050 bc 6b 1e 3c 20 a8 08 3d ec 11 7d 3b 4e 21 34 3d
       0.009669241 0.03336346 0.0038615419 0.043977074
000060 f7 60 3e 3d 3d 84 8a bc 10 59 d8 bc 7d e2 18 bd
       0.04647919 -0.01690876 -0.026409656 -0.03732537
000070 2e b4 90 3d 7a 27 3a 3d 1f 44 21 3c 86 3f e2 3b
       0.070656165 0.045447804 0.0098429015 0.0069045452
000080 f6 74 80 bc 62 ee ca 3d 16 c0 5a bc 4e 61 29 3d
       -0.015680771 0.09908749 -0.013351461 0.041352563
000090 35 8d 70 bb 42 28 a5 3d 84 f5 d1 3c cc 87 56 bd
       -0.003670526 0.08064319 0.025629766 -0.0523756
0000a0 09 b4 94 3b 23 23 18 bd 3b c5 15 3e c8 2a fb 3d
       0.0045380634 -0.037142884 0.14626019 0.12264019
0000b0 64 a8 60 bd 72 fd 6e 3c 2b 7a 84 bd 45 10 9a 3d
       -0.05484809 0.014586793 -0.06468614 0.075226344
0000c0 94 35 25 3e 7d 48 59 3c 2b f4 f2 3b cf e8 14 bd
       0.1613372 0.013261911 0.007414361 -0.036354836
0000d0 f0 d3 e4 ba d1 c8 a7 3d 7b 69 ea 3c cf 7c 48 3c
       -0.0017458182 0.081925996 0.02861475 0.012236788
0000e0 78 9c 17 3d 8c e7 ee 3b 58 a6 89 3d 4d fe 2a 3d
       0.037014455 0.007290786 0.06721181 0.041746426
0000f0 48 0a 3c bd 2e bc 06 bd 90 65 45 bd 3c 97 7c bd
       -0.045908242 -0.032894306 -0.04819256 -0.061667666
000100 8d 4a 63 3d 8b 21 16 3d b3 2c 45 3d d6 ae b8 bc
       0.05549102 0.036653083 0.04813833 -0.022544306
000110 41 6b a7 3c db 99 0e 3c 76 13 25 3c 5e 56 5b 3c
       0.020436885 0.008703674 0.010075441 0.013387291
000120 7d 7a 31 3d 36 58 9d bd 34 6c 4b bd 49 73 4f 3d
       0.043329705 -0.076828405 -0.049663737 0.050647054
000130 09 8f a4 bc 52 ab 9e 3c af ab d1 3d 40 c2 a0 3d
       -0.020087736 0.019368801 0.10237824 0.0784955
000140 b1 b1 d4 bc f2 c1 37 3d 1b a9 1a 3b 6f c2 3d ba
       -0.025963636 0.044862695 0.002359933 -0.00072387507
000150 4f f1 4d bd 64 42 01 3d ee e1 34 bd c3 dc 07 3e
       -0.050278958 0.031557456 -0.044160776 0.13267808
000160 53 85 cb bb 87 97 58 3d 80 71 1d 3d b2 44 8c bd
       -0.006210962 0.052878883 0.03843832 -0.0684904
000170 fc 68 8a bc cb ce 08 be b9 42 06 3d 0a 19 d5 bd
       -0.016895764 -0.13360135 0.032778475 -0.104051664
000180 b9 dc ed bc a6 94 33 3d 2d 39 c0 3c 52 67 56 bd
       -0.029035913 0.043842934 0.023464764 -0.052344628
000190 3d 13 d5 bc 1a d1 23 be 94 78 93 3d 5a 8a c8 b9
       -0.02601015 -0.15997735 0.07200733 -0.00038250053
0001a0 87 05 af 3d cf 87 1c bd ef 75 80 39 19 f1 f5 3d
       0.08545976 -0.038215455 0.0002450193 0.12008876
0001b0 01 9a 32 3d c6 e3 dd bd 70 07 3c 3c 5c 4f 6a 3d
       0.0436039 -0.1083446 0.011476383 0.05720459
0001c0 b8 ef 51 3d af 8e 07 3c fc a5 a9 3d 54 8c ba 3d
       0.051254004 0.0082737645 0.08283612 0.09108797
0001d0 1d 4d 2d bd c2 22 45 3d ab c1 f8 bd 49 d4 a7 3d
       -0.04230987 0.04812885 -0.12146314 0.08194787
0001e0 ec 96 df 3c 80 2e d0 3a f2 18 a1 3d 07 4e a2 3c
       0.027293645 0.0015882999 0.07866086 0.019812597
0001f0 f4 02 6c 3d 97 10 53 bd 29 19 08 be 3d b9 93 ba
       0.057620004 -0.051529493 -0.13290848 -0.0011270415
000200 62 83 7b bc c5 f6 35 bd 66 25 ed bd b7 2f b0 bb
       -0.015351148 -0.04442479 -0.11579399 -0.005376782
000210 c3 5c e5 bb 86 13 f5 3c 56 c2 d5 bd de c9 bd bc
       -0.0069995834 0.029916536 -0.10437457 -0.023167547
000220 0f 23 9e 3d c6 5d 2f bd 94 e1 a6 3c 73 d2 b8 bc
       0.07721531 -0.04281404 0.020371236 -0.022561288
000230 4a 1b 95 bd 16 62 dc 3c de f0 22 bd 68 5c 1b 3d
       -0.072805956 0.02690224 -0.03978049 0.037929922
000240 cf 3e e6 3c 72 3c 0c bd d9 16 16 bd 20 69 8a bc
       0.028106121 -0.034237333 -0.036642883 -0.01689583
000250 93 2d 56 bc 02 2f a5 3d db 24 fc bb 32 b7 95 bc
       -0.013072389 0.08065607 -0.007694823 -0.01827583
000260 02 31 4d 3d d8 54 94 bc 7f 3c d4 3c ff 3d 68 3d
       0.050095566 -0.018106863 0.025907753 0.05669975
000270 7d 66 0f bd 46 a3 aa bd b5 5e 9f bd 5e b0 8e bc
       -0.03500985 -0.08331923 -0.07781736 -0.017418083
000280 62 ff 21 3d 32 c6 c2 3b 8d 1a d1 3d 51 3a ac 3d
       0.039550193 0.005944037 0.10210142 0.084095605
000290 26 c5 b9 3d 9a 99 2a bd aa 6f 82 bc 1e bb c7 bc
       0.09070806 -0.041650392 -0.015922386 -0.024381217
0002a0 38 f3 bd 3c d9 ea e1 bc fb 79 e6 3d 0a f0 0d bc
       0.023187265 -0.027577804 0.11253735 -0.008663187
0002b0 b2 4d b4 3d c4 99 66 bd 97 86 1f bc 6c 19 52 bc
       0.08803882 -0.056298986 -0.009736679 -0.012823444
0002c0 a8 53 c1 bc ee e9 2a bb 2f ba 26 3d 5e af 56 bd
       -0.02359946 -0.0026079374 0.040704902 -0.052413337
0002d0 d3 64 75 bb 46 26 b7 3c a8 c4 7e 3d dd 3f 51 bd
       -0.003744413 0.022357117 0.062199265 -0.051086295
0002e0 c1 53 40 3d e6 3e f8 bc b4 16 69 bd 09 34 26 3d
       0.046954874 -0.03030343 -0.056906417 0.04057697
0002f0 8e c1 2e ba 2d 9e a5 3c 0e 43 5c 3d de 95 47 bd
       -0.0006666415 0.020217026 0.053774886 -0.04872691
000300 92 e1 52 bd 69 b2 9d bc 8e c9 5d bb 98 c0 43 3d
       -0.051484652 -0.019250112 -0.003384206 0.047791094
000310 f5 1a cc bd aa a9 93 bc 06 ff 12 bd f4 f8 27 bd
       -0.09966079 -0.018025238 -0.03588774 -0.041008905
000320 64 a1 4b 3c 3b 25 a3 bc 70 38 58 3c f1 b3 f2 bd
       0.012428615 -0.019915214 0.0131970495 -0.11850727
000330 32 e1 a4 3b e3 f2 9b 3d 73 17 aa bd 04 0d 11 bd
       0.005031728 0.07614686 -0.08305254 -0.035412803
000340 70 ee fc bc 08 56 5c bd 8e 7e 33 3d 13 d9 71 bd
       -0.030875415 -0.053792983 0.043821864 -0.05904491
000350 e0 c4 db bd 2b 12 24 3c 83 8c 6f bc fc 07 81 bd
       -0.1073091 0.010014097 -0.014620903 -0.06300351
000360 6f 7c 07 3e 80 94 f4 3c 10 c5 02 3e 05 27 80 3d
       0.13231061 0.029855967 0.12770486 0.062574424
000370 f4 f2 4f 3d 3e 6e 50 3d 2f 17 89 bc da ec 16 3d
       0.050768808 0.050886385 -0.016734688 0.036846973
000380 ae f2 2e bd 0d b9 a6 3c 87 b2 02 3c 95 e1 74 bd
       -0.042711906 0.020351911 0.007977135 -0.059785444
000390 4e ec ae 3c 26 74 4c 3d 3d a8 b7 bc fd 71 fd 3c
       0.021352913 0.049915455 -0.02241909 0.030938143
0003a0 55 7d 1d 3d d3 14 29 bc a8 ce 86 3d 42 b0 c5 bc
       0.038449604 -0.010319906 0.06582385 -0.024131898
0003b0 84 11 4e 3c cd 19 93 3c 48 1e c3 bd 9b 02 1d bc
       0.012577418 0.017956639 -0.0952726 -0.009583141
0003c0 39 bd a4 bb cb cc 95 3d 59 3e 6b bd 04 1a 59 3d
       -0.00502744 0.07314452 -0.057432506 0.053003326
0003d0 b8 74 9c bd b8 eb 71 3d 92 db 3c 3d 11 82 b9 bc
       -0.0763945 0.05906269 0.046107836 -0.022645028
0003e0 36 c9 b5 3c cd 23 93 3d 97 5d a5 bc ac 55 e9 3c
       0.022190671 0.07184563 -0.020186229 0.028483234
0003f0 92 b0 bd 3c 09 c1 96 3c 9b f0 75 bc d4 ec 23 3d
       0.023155484 0.018402593 -0.015010978 0.04002078

conv3.bias f4 [32]
000000 10 dc ed bd bd 39 e5 bc eb d8 ab 3d 4a 79 43 bc
       -0.11614239 -0.027981633 0.08390983 -0.011930773
000010 21 88 16 3c 8b 3a 37 bd 78 89 03 3e bb e7 bf bc
       0.009187729 -0.044733565 0.12845409 -0.023425927
000020 2b 27 1e 3c 97 db 0c bd 70 bc 31 3d 8e 62 8d 3d
       0.009652893 -0.034389105 0.0433926 0.069035634
000030 ed 56 f5 bc 4e 5e b2 3a 92 a5 08 bd 9e c6 ec 3c
       -0.029948676 0.0013608427 -0.033361025 0.028903302
000040 cd 05 52 3c 5f ee 66 3d ca b2 01 be 38 0d 29 3d
       0.012818766 0.056379672 -0.12665859 0.041272372
000050 2c 71 02 bd 64 9c 48 3d 9e dc a9 bd f7 f6 fd 3c
       -0.03184621 0.04897727 -0.082940325 0.031001551
000060 91 bc 35 bd c8 03 f8 bb 3e c8 9c 3c 80 59 c0 bc
       -0.044369284 -0.00756881 0.019138452 -0.023480177
000070 d0 ae b9 bc e2 b5 00 bc 7d 9f 6e bd e7 e2 6b 3c
       -0.022666365 -0.007855864 -0.05825757 0.014397359

out_conv.weight f4 [3, 32, 1, 1]
000000 8f b6 2c bf 9f c7 20 be 2d b4 d0 3e af 46 00 be
       -0.6746606 -0.1570115 0.40762463 -0.12526964
000010 c6 ea a8 3d bb ba 9e be c9 84 21 3f dd ea 4d be
       0.082479045 -0.3100184 0.6309324 -0.20109124
000020 f0 62 0c 3e 8a 9d 24 be 40 ed 5b 3e ca de c4 3e
       0.13709617 -0.16075721 0.21477222 0.38451225
000030 c5 7b 0d be 5a b8 de 3d 5c 78 1b be 36 22 40 3e
       -0.13816746 0.10875006 -0.15182632 0.1876305
000040 fd 3f dd bb 71 1a 80 3e 71 24 2b bf 99 b1 64 3e
       -0.0067520128 0.25020173 -0.6685248 0.22333373
000050 e5 dc 56 be 4e e1 b6 3e 2e f7 f1 be 81 45 5a 3e
       -0.20982702 0.3571877 -0.47258896 0.21315576
000060 35 3e 0d be be 33 4a bc 13 51 ea 3d 0a da 07 be
       -0.13793261 -0.012341438 0.11441245 -0.13266769
000070 73 82 1c be da df dc ba 21 eb b0 be 3c 97 db 3d
       -0.15284137 -0.0016851381 -0.3455439 0.10722205
000080 0f 47 42 3e 3f 0e b5 3c 29 f2 3b 3e 10 d8 7e 3e
       0.18972419 0.02210152 0.18354096 0.24887109
000090 dd ab ec bd d6 cc 8e 3e 14 ac 85 3e 67 be 89 3e
       -0.11556218 0.27890652 0.26107848 0.26903078
0000a0 ce 98 a2 be 3f 43 a6 bd ff 7f 62 3d b1 16 4b bd
       -0.31757206 -0.08118295 0.055297848 -0.049582187
0000b0 ed 95 a1 bd 74 b8 c0 be c4 01 c8 bd b8 4b 04 be
       -0.07889924 -0.37640727 -0.09765962 -0.1291951
0000c0 b2 51 92 3e 1c 37 5d 3e 7f 82 91 bd d5 2c 2b bc
       0.28577954 0.21603054 -0.07104968 -0.0104477005
0000d0 f8 b5 f2 3d 09 14 bc be 07 c5 1e 3e da f6 42 be
       0.11851114 -0.36734036 0.15504847 -0.19039479
0000e0 4e 16 cb be a0 e0 00 be 03 ae 29 bd 3d 74 83 3c
       -0.39665455 -0.12585688 -0.041425716 0.016046638
0000f0 7a 7b 10 3e 40 9a 2c be 2e a3 30 3e bb ac a4 bd
       0.14109603 -0.16855717 0.17249748 -0.08040758
000100 3a 43 83 be 19 27 77 3d 87 e6 55 3c 72 c1 2f 3e
       -0.25637227 0.06034002 0.01305545 0.17163637
000110 85 ec bb 3e 0a 34 3f bd 87 ca 8d be 45 d2 4f 3e
       0.36703888 -0.046680488 -0.2769358 0.20295055
000120 dc e5 01 bd 16 da 19 3e 11 99 93 3e 99 f7 56 3d
       -0.03171335 0.150246 0.28827718 0.05248222
000130 4b d4 8d bd 36 a0 76 3e 26 e6 7d be df 19 fe 3d
       -0.06925257 0.24084553 -0.24794826 0.12407278
000140 93 1d f1 3c 4e 1e 7e 3e bd 86 25 3d 0d 73 89 3d
       0.029433047 0.24816248 0.0404117 0.06711397
000150 ec 92 22 3e 61 98 e7 bd 16 9e 19 be 74 27 58 bd
       0.15876359 -0.11308361 -0.15001711 -0.052772
000160 13 07 17 bd 1c 3c c1 3c 4d 8d f5 bc ab 45 5f be
       -0.03687198 0.023588233 -0.029974604 -0.2180392
000170 5e 6c ff 3d c4 b5 58 be a5 d6 8d be 9a 90 65 3e
       0.12471841 -0.21163088 -0.27702823 0.22418442

out_conv.bias f4 [3]
000000 04 39 42 3e 7d bf 4b 3d 00 00 00 00
       0.18967062 0.049743164 0.0
