navier_adam_only_model.pth (torch, 81823 bytes, 8 tensors)

conv1.weight f4 [32, 3, 3, 3]
0.008238955 0.036189277 -0.017665433 -0.021816207 0.06295825 0.1430461 0.055098545 -0.04536857
-0.059246995 -0.07394803 0.05074674 -0.022341685 -0.005231754 0.5517756 -0.0049763 -0.07364377
-0.06466542 -0.045889508 -0.08117296 -0.09695024 -0.044020332 -0.09871946 0.007040002 -0.036516905
0.0034102811 0.025391687 0.03939178 -0.066108 -0.04587344 -0.011268493 0.020635339 -0.085146144
-0.0646498 -0.004749027 0.080903955 0.13810723 0.04291477 -0.21412034 0.047089204 0.029114433
-0.5540029 -0.020176345 0.014967509 -0.032766044 -0.019596685 0.015857011 -0.05177914 0.06554358
0.13124599 0.005688274 0.02841709 0.07362471 0.050563302 -0.11531613 -0.037340082 0.047728993
0.0882552 0.12951057 -0.2042077 -0.06638453 0.06718533 0.08693342 -0.040397614 0.17165835
-0.021027885 0.16350299 0.16761321 1.1808292 -0.24530043 0.07558602 0.06940378 -0.013547046
0.12589106 0.12493294 0.040592637 0.05729298 0.014433221 -0.124933526 -0.015046777 -0.10535625
-0.010134618 0.033499062 0.025966099 0.03157965 0.072238766 0.0069005764 -0.02092666 0.076308146
-0.09693855 0.051623747 0.045415834 0.1299464 0.064690135 -0.0023328068 -0.16665164 -0.025906503
0.033835974 0.0847323 0.066024765 0.08566087 -0.007567443 -0.1434985 -0.038528625 0.02174948
0.07740187 -0.020655612 -0.051440857 0.0060048043 0.21199712 0.014593745 0.13536021 -0.022241874
0.005102805 -0.11190971 0.1490526 -0.020193296 0.032418337 -0.032002527 0.118943535 -0.12433682
-0.03750543 -0.00060454756 -0.054533765 -0.16061683 0.022372553 0.10977778 0.020383166 -0.07832876
0.11170541 -0.023582293 -0.15884271 0.10624177 -0.12054069 0.1145899 -0.016749848 -0.1542142
0.0053916653 0.08545169 -0.069247164 0.1274655 -0.08448387 0.026314853 0.083818115 -0.12061558
-0.10234162 0.017486691 -0.07688673 0.021996303 -1.1632376 0.14734583 0.08392015 0.20727144
0.029278057 0.027497891 -0.202093 0.09715575 -0.037692025 0.0016913615 -0.027739476 -0.012229208
-0.050703425 -0.050506476 -0.12493829 0.012814034 -0.0040641483 -0.1103903 -0.10223313 0.00846269
0.024677582 0.12228573 -0.040411126 0.058777194 -0.012870797 0.002648542 -0.06523955 -0.084264904
0.09388863 0.061303984 0.09379257 0.025756314 0.03556235 0.013408422 0.01700492 0.037829034
-0.056978352 0.07352677 0.01641647 -0.0024100784 0.06877734 -0.09352403 0.015009917 0.043314304
-0.025895713 0.22996859 -0.12277272 -0.012953869 -0.07951365 0.016695812 -0.034675736 -0.015947074
-0.012925949 0.09273164 -0.4103707 -0.07969169 -0.058204465 -0.048993424 -0.06874149 0.0453723
0.060647435 0.079171084 -0.03772686 0.08727091 -0.07985978 -0.025000313 0.012250351 0.09048318
0.04925079 0.051775917 0.095793575 0.2087276 0.24116112 0.07381747 -0.035965182 0.024180057
-0.0015822576 0.15452692 -0.0008416691 0.08010111 -0.075722694 -1.0803803 -0.057200488 -0.0807735
0.07007608 0.048674233 0.05877445 0.09959691 0.0015048768 0.052115817 0.0022365293 0.035330813
0.02481372 -0.012314739 -0.0413992 0.11968587 0.033925317 -0.004000565 -0.04922446 0.027491448
0.038744804 0.024976177 0.13257459 0.03675426 0.06587735 0.08796821 -0.062351502 -0.16670865
00000000: affc 063c 353b 143d 19b7 90bc e7b7 b2bc
00000010: 41f0 803d ad7a 123e 03af 613d 65d4 39bd
00000020: faac 72bd 1172 97bd d0db 4f3d e905 b7bc
00000030: 226f abbb 2a41 0d3f 3b10 a3bb 8bd2 96bd
00000040: 4e6f 84bd a3f6 3bbd 023e a6bd d98d c6bd
00000050: aa4e 34bd 6e2d cabd d1af e63b c092 15bd
00000060: 067f 5f3b 3a02 d03c 4659 213d a263 87bd
00000070: cae5 3bbd 7c9f 38bc 710b a93c 1a61 aebd
00000080: 1d67 84bd ba9d 9bbb f9b0 a53d fb6b 0d3e
00000090: 66c7 2f3d 5d42 5bbe 9ce0 403d 6481 ee3c
000000a0: 22d3 0dbf dd48 a5bc 483a 753c b035 06bd
000000b0: 3a89 a0bc 90e6 813c 5d16 54bd b63b 863d
000000c0: 5965 063e b364 ba3b f5ca e83c 8dc8 963d
000000d0: 771b 4f3d dd2a ecbd eaf1 18bd 7a7f 433d
000000e0: 24bf b43d 6b9e 043e d31b 51be 9df4 87bd
000000f0: 7698 893d 260a b23d f877 25bd 35c7 2f3e
00000100: ac42 acbc 546d 273e cca2 2b3e 6925 973f
00000110: 0930 7bbe d8cc 9a3d 9223 8e3d 6ef4 5dbc
00000120: 96e9 003e d7dc ff3d 7744 263d 0bac 6a3d
00000130: 5179 6c3c 26dd ffbd c286 76bc 05c5 d7bd
00000140: ab0b 26bc 5036 093d dbb6 d43c aa59 013d
00000150: ebf1 933d 3b1e e23b 636e abbc 7247 9c3d
00000160: b887 c6bd 6c73 533d f405 3a3d ab10 053e
00000170: 437c 843d 01e2 18bb baa6 2abe e039 d4bc
00000180: 9797 0a3d 2188 ad3d fe37 873d f76e af3d
00000190: 50f8 f7bb 45f1 12be 31d0 1dbd f72b b23c
000001a0: df84 9e3d f535 a9bc a6b3 52bd f3c3 c43b
000001b0: c615 593e 9a1a 6f3c de9b 0a3e 9734 b6bc
000001c0: 6e35 a73b eb30 e5bd 3fa1 183e 696c a5bc
000001d0: 17c9 043d 1515 03bd ab98 f33d 4da4 febd
000001e0: 4b9f 19bd 807a 1eba cc5e 5fbd bd78 24be
000001f0: a546 b73c 2cd3 e03d 99fa a63c d46a a0bd
00000200: cec5 e43d a72f c1bc aaa7 22be 4995 d93d
00000210: 0ade f6bd 1cae ea3d fa36 89bc 54ea 1dbe
00000220: 91ac b03b 4c01 af3d 75d1 8dbd 5186 023e
00000230: e105 adbd 3f92 d73c d5a8 ab3d 4d05 f7bd
00000240: 7c98 d1bd 4040 8f3c ca76 9dbd 9731 b43c
00000250: f8e4 94bf d3e1 163e 54de ab3d f73e 543e
00000260: 89d8 ef3c 4243 e13c 78f1 4ebe 98f9 c63d
00000270: f462 1abd adb0 dd3a e63d e3bc 045d 48bc
00000280: 65ae 4fbd e1df 4ebd a5df ffbd f4f1 513c
00000290: 8c2c 85bb 4f14 e2bd 9a5f d1bd 18a7 0a3c
000002a0: a428 ca3c f170 fa3d 2386 25bd 5bc0 703d
000002b0: 09e0 52bc 2993 2d3b 509c 85bd 1493 acbd
000002c0: af48 c03d e319 7b3d 5216 c03d e8fe d23c
000002d0: d4a9 113d ffae 5b3c e74d 8b3c 9ef2 1a3d
000002e0: 2262 69bd 3495 963d d57b 863c 68f2 1dbb
000002f0: 22db 8c3d 8789 bfbd 28ec 753c 576a 313d
00000300: 3f23 d4bc e37c 6b3e 4470 fbbd 773c 54bc
00000310: 0dd8 a2bd a8c5 883c 2508 0ebd 70a3 82bc
00000320: 5cc7 53bc 16ea bd3d 1c1c d2be 6635 a3bd
00000330: ce67 6ebd 54ad 48bd 57c8 8cbd 4ed8 393d
00000340: 7269 783d 7324 a23d 7b87 1abd 17bb b23d
00000350: 868d a3bd 75cd ccbc b2b5 483c 3f4f b93d
00000360: 32bb 493d fc12 543d 6c2f c43d b0bc 553e
00000370: f1f2 763e 9d2d 973d 3a50 13bd 4115 c63c
00000380: c163 cfba 4e3c 1e3e 75a3 5cba 0d0c a43d
00000390: 8014 9bbd e749 8abf 0f4b 6abd 946c a5bd
000003a0: 0c84 8f3d a25e 473d 7abd 703d 77f9 cb3d
000003b0: 493f c53a 6577 553d bc92 123b 0bb7 103d
000003c0: 2446 cb3c c2c3 49bc 3592 29bd de1d f53d
000003d0: 46f5 0a3d 2c17 83bb 969f 49bd bf35 e13c
000003e0: dfb2 1e3d d79a cc3c a2c1 073e a38b 163d
000003f0: b4ea 863d ad28 b43d 4a64 7fbd acb5 2abe

conv1.bias f4 [32]
0.11713433 0.1376891 0.116143644 -0.037224326 -0.21852313 0.38915902 -0.13947086 0.32587558
-0.21195374 -0.0003459187 -0.015064335 0.073024385 0.25617674 0.45266783 -0.051965576 0.048900213
0.084250644 0.037767556 -0.031268835 0.07307292 0.06745283 0.097401716 0.033659436 -0.12229771
0.19214283 0.09706321 -0.121948734 -0.0893076 0.014356976 -0.44270942 0.037290342 0.109871246
00000000: 20e4 ef3d 5ffe 0c3e b8dc ed3d 8978 18bd
00000010: 87c4 5fbe da3f c73e 73d1 0ebe 2ad9 a63e
00000020: 670a 59be 6c5c b5b9 67d0 76bc cf8d 953d
00000030: 9929 833e 14c4 e73e dbd9 54bd 974b 483d
00000040: 9a8b ac3d 27b2 1a3d c013 00bd 41a7 953d
00000050: b624 8a3d 8d7a c73d 7ade 093d 3977 fabd
00000060: 17c1 443e 14c9 c63d 42c0 f9bd e7e6 b6bd
00000070: 8639 6b3c cfaa e2be c2bd 183d 2d04 e13d

conv2.weight f4 [32, 32, 3, 3]
0.02528674 -0.01092793 -0.04962378 0.07525404 0.07199021 0.102946326 0.05380672 -0.031534567
-0.025333503 -0.065813504 -0.001366348 0.028502213 -0.049319163 -0.020244537 0.15195887 0.04478864
0.101645075 0.008448134 0.017428162 -0.03103201 -0.0033483282 -0.003712762 -0.084994465 -0.07438812
-0.007960418 0.039720744 0.17353332 -0.1466841 0.022804083 -1.5046891e-05 -0.05000301 -0.12494245
-0.11317809 -0.093013436 -0.0185406 0.12690628 -0.14696118 -0.004717115 0.0077184937 0.022884775
-0.0058055623 -0.015490653 -0.04950166 -0.010916575 0.011476861 0.037696753 -0.0072114333 0.015921257
0.016768677 -0.27673236 -0.022947785 0.0102122575 -0.005165978 -0.050813943 -0.031353287 -0.035495613
-0.1544184 0.00041152077 -0.020883935 -0.033638462 -0.079537764 0.06543034 0.042361956 0.08625013
-0.09725525 -0.035573404 0.077394895 0.06814997 0.0105805155 0.0073592234 -0.09695474 0.043877415
0.07544196 0.029873908 0.11396983 0.010561296 0.08023361 -0.015034266 -0.049977563 0.016829956
0.03809029 0.0034147599 -0.050012313 0.05231252 0.0067393435 -0.06917587 0.041741386 -0.066958435
0.016804805 0.01142133 -0.05513265 0.06298132 0.041871846 0.050270792 0.019005252 0.0704752
-0.03889137 0.00791523 -0.011167827 0.054527096 0.035599705 -0.044157002 0.013607389 0.02662167
-0.0004168891 0.11249841 -0.10813087 -0.13428363 -0.0050280034 0.11525965 0.028095268 0.034158286
-0.19544469 0.058964018 -0.02472251 0.053196378 0.061815694 0.025731672 -0.07907352 -0.007576768
-0.05506355 -0.09931234 -0.03221578 0.03695421 -0.027210154 0.11961763 -0.06939429 0.021807592
-0.05374013 -0.22262624 0.091717415 -0.0042720675 -0.030448735 0.046469625 -0.02276073 -0.02534965
0.07533299 -0.03939969 -0.0023253146 0.095730305 0.0052917902 -0.040203143 0.10621296 0.06770533
-0.053280678 0.10870315 -0.025353044 -0.028926868 0.02671314 0.11251731 -0.05177746 -0.07474833
0.028161395 0.0929034 0.0032356011 0.03589679 0.030438356 0.05552276 0.007516326 -0.08001276
-0.031400673 -0.06590081 0.050880626 -0.033412952 0.014831914 -0.047566157 -0.120244436 0.049234282
-0.0045946087 0.083282806 -0.006123667 0.021109214 -0.033049718 0.0069055674 -0.021301206 -0.0149803255
0.016330117 0.053226575 0.039812315 -0.044703316 -0.0851873 -0.047136247 0.007825307 0.015171138
0.095764875 -0.010079112 0.090606734 0.15665689 0.027561916 0.02814521 0.042831786 0.0322085
-0.05753431 0.05663477 -0.02669439 0.037531786 0.046962544 0.061877552 0.051840942 -0.019398032
-0.050019883 0.15554477 -0.099268325 0.12081817 -0.07705488 -0.038175385 -0.017245406 0.094432175
0.048078343 0.08162323 -0.0499908 -0.03998933 -0.12215528 0.052182812 -0.00904073 -0.1731879
0.052182812 0.05984052 -0.010230951 -0.029218063 0.063316114 -0.06584334 0.06859836 -0.020579142
0.008321199 -0.017506253 -0.11201146 -0.03008493 -0.024948802 0.04067388 -0.017502015 0.100762494
-0.012717094 0.008796381 0.10696886 -0.07974251 0.041259658 0.032566667 0.0030679207 -0.024190111
-0.093456455 0.027994994 -0.04185747 -0.08473663 0.036767848 -0.09610188 0.0471581 -0.10642487
0.12808982 0.008296786 0.053052567 -0.029263413 -0.0021052863 -0.03506354 0.032316856 0.09102656
00000000: 2326 cf3c 0f0b 33bc 4e42 4bbd ca1e 9a3d
00000010: 9a6f 933d 86d5 d23d 6f64 5c3d 642a 01bd
00000020: 3588 cfbc 3bc9 86bd 0817 b3ba 797d e93c
00000030: e402 4abd dfd7 a5bc 1b9b 1b3e 4b74 373d
00000040: 4b2b d03d 0b6a 0a3c 81c5 8e3c d836 febc
00000050: a06f 5bbb cf51 73bb 9411 aebd cc58 98bd
00000060: 6a6c 02bc 38b2 223d b8b2 313e 5b34 16be
00000070: a1cf ba3c e871 7cb7 f5cf 4cbd d4e1 ffbd
00000080: eac9 e7bd d47d bebd 75e2 97bc b8f3 013e
00000090: fe7c 16be 0792 9abb 6beb fc3b da78 bb3c
000000a0: 963c bebb 82cc 7dbc 41c2 4abd 6fdb 32bc
000000b0: 7209 3c3c e967 1a3d e34d ecbb 4c6d 823c
000000c0: 775e 893c ddaf 8dbe fefc bbbc 5051 273c
000000d0: 5d47 a9bb 4822 50bd 4e6c 00bd d963 11bd
000000e0: db1f 1ebe 62c1 d739 c914 abbc 7cc8 09bd
000000f0: b2e4 a2bd 5800 863d bb83 2d3d e8a3 b03d
00000100: c32d c7bd 6bb5 11bd 3781 9e3d 3692 8b3d
00000110: e659 2d3c a425 f13b 3590 c6bd ceb8 333d
00000120: 5081 9a3d 20ba f43c 0469 e93d 4909 2d3c
00000130: 8551 a43d 4852 76bc 46b5 4cbd fade 893c
00000140: 9004 1c3d 2aca 5f3b b6d9 4cbd a745 563d
00000150: b6d5 dc3b 14ac 8dbd 04f9 2a3d 8121 89bd
00000160: 3baa 893c 8820 3b3c c6d2 61bd 5afc 803d
00000170: d081 2b3d bfe8 4d3d e7b0 9b3c 4d55 903d
00000180: 8f4c 1fbd e1ae 013c 43f9 36bc ce57 5f3d
00000190: ffd0 113d f9dd 34bd 87f1 5e3c b015 da3c
000001a0: e891 dab9 9165 e63d b873 ddbd a681 09be
000001b0: f3c1 a4bb 400d ec3d 0c28 e63c 8fe9 0b3d
000001c0: a722 48be 4184 713d dc86 cabc 72e4 593d
000001d0: 7432 7d3d 3acb d23c 4cf1 a1bd 8946 f8bb
000001e0: 518a 61bd 4564 cbbd b2f4 03bd 4c5d 173d
000001f0: d4e7 debc 17fa f43d 981e 8ebd d6a5 b23c
00000200: 9c1e 5cbd 22f8 63be 57d6 bb3d b3fc 8bbb
00000210: a06f f9bc ef56 3e3d b674 babc 12aa cfbc
00000220: 2f48 9a3d 9261 21bd 4e64 18bb 400e c43d
00000230: c166 ad3b 0dac 24bd 2e86 d93d 18a9 8a3d
00000240: d73c 5abd c29f de3d 30b1 cfbc 0af8 ecbc
00000250: 84d5 da3c 7a6f e63d 9a14 54bd a715 99bd
00000260: bab2 e63c 2344 be3d 610c 543b 8308 133d
00000270: dc59 f93c d56b 633d 834b f63b bbdd a3bd
00000280: fe9d 00bd 01f7 86bd 3468 503d 05dc 08bd
00000290: 8e01 733c bbd4 42bd b742 f6bd e3a9 493d
000002a0: 5f8e 96bb 2d90 aa3d 0ba9 c8bb 3bed ac3c
000002b0: 245f 07bd 1948 e23b de7f aebc 0a70 75bc
000002c0: bdc6 853c 1c04 5a3d 3d12 233d d31a 37bd
000002d0: ae76 aebd f011 41bd b735 003c 5d90 783c
000002e0: 6020 c43d dc22 25bc 0690 b93d aa6a 203e
000002f0: 87c9 e13c c990 e63c 6270 2f3d 0fed 033d
00000300: 19a9 6bbd dcf9 673d 32ae dabc eeba 193d
00000310: cc5b 403d 5173 7d3d 2b57 543d 9fe8 9ebc
00000320: a6e1 4cbd 2147 1f3e 314d cbbd 846f f73d
00000330: f3ce 9dbd cb5d 1cbd 3d46 8dbc a865 c13d
00000340: cced 443d 142a a73d 27c3 4cbd dacb 23bd
00000350: 8c2c fabd a5bd 553d 921f 14bc 2b58 31be
00000360: a5bd 553d 551b 753d b89f 27bc b85a efbc
00000370: e1ab 813d dfd8 86bd 4c7d 8c3d 9795 a8bc
00000380: a355 083c 4669 8fbc 4466 e5bd ac74 f6bc
00000390: 6e61 ccbc a899 263d 6360 8fbc 915c ce3d
000003a0: 5c5b 50bc b21e 103c 7d12 db3d 0b50 a3bd
000003b0: e3ff 283d a064 053d 2b0f 493b 572a c6bc
000003c0: 1966 bfbd c255 e53c bd72 2bbd 668a adbd
000003d0: e299 163d 10d1 c4bd da28 413d 48f5 d9bd
000003e0: fa29 033e 3eef 073c a64d 593d d3b9 efbc
000003f0: d8f8 09bb c99e 0fbd ae5e 043d 226c ba3d

conv2.bias f4 [32]
0.09443887 0.025895339 -0.049266174 -0.06760097 0.0249738 0.12102129 0.051058967 0.10173814
-0.04448196 0.025632454 0.10043572 0.028210996 -0.051682953 -0.01696211 -0.005213877 0.054244623
-0.06292983 -0.08437385 -0.03729724 0.031275924 -0.05521998 0.05139552 -0.049920566 0.053794585
-0.11721403 -0.046387043 -0.03650718 0.031457223 0.07012735 -0.0032878814 0.019893188 0.117124446
00000000: 2b69 c13d 7622 d43c 54cb 49bd 6172 8abd
00000010: db95 cc3c 03da f73d 3523 513d 165c d03d
00000020: b732 36bd 27fb d13c 3eb1 cd3d bf1a e73c
00000030: 81b1 53bd 1ff4 8abc 2cd9 aabb 9c2f 5e3d
00000040: 5be1 80bd 32cc acbd fec4 18bd 2f1b 003d
00000050: 592e 62bd 1c84 523d 8279 4cbd b657 5c3d
00000060: e90d f0bd 5700 3ebd 8e88 15bd 4ad9 003d
00000070: ee9e 8f3d 7f79 57bb 0af7 a23c f1de ef3d

conv3.weight f4 [32, 32, 3, 3]
0.012290751 0.021300742 -0.052767005 0.026081651 0.0047005643 0.044774342 0.12316927 0.029569931
-0.04797774 -0.01829844 -0.052279487 -0.101845756 0.04485943 0.0278643 0.03487046 0.042220693
-0.09236778 -0.01428384 -0.025854323 0.064022444 -0.082208164 0.020928899 -0.05871596 0.0077328826
-0.018412055 -0.043582916 -0.0488335 0.013314771 -0.05187683 -0.014596593 -0.0740695 -0.065710045
-0.0008233237 -0.014165033 0.07527927 0.013642371 0.04953908 0.028748391 -0.08584892 -0.030945387
-0.0020442335 0.0007727191 -0.058317836 0.046882994 -0.02656227 0.009766217 -0.039020706 0.010381769
0.08374605 0.13886037 -0.068438046 -0.19951022 0.031694364 -0.09240335 0.00992441 0.00665488
-0.0052160043 -0.028410982 0.04536682 -0.023337334 0.014020877 -0.010686527 0.07545271 0.007559304
-0.095764056 -0.040939126 0.05130889 0.008006645 0.024738224 -0.047994062 -0.0025696878 0.0011229827
-0.13427824 0.05190265 0.07853712 0.0512694 0.033141438 0.11564819 0.067443565 -0.060138684
-0.06773874 0.009011437 -0.034031335 -0.06353433 0.024631523 0.04487083 0.021691516 0.11820398
-0.0287007 0.039251257 -0.046832338 -0.03272158 0.050301753 -0.007642358 -0.10301163 0.0011520728
0.023515249 -0.04678701 -0.0107000545 0.010458351 -0.06451845 -0.0011127675 0.03813813 -0.045877032
-0.039109726 -0.09054309 -0.063995175 0.037306946 -0.022218918 0.028820792 -0.0058727437 0.06726882
-0.09825537 -0.09287082 0.08163255 -0.06724834 0.09060529 0.004274557 -0.09130914 0.065244384
-0.043232087 0.049275223 -0.040395826 -0.019143298 0.078320496 0.051021546 -0.08131463 0.079111144
-0.0007325484 -0.04584781 -0.14741609 -0.056961708 0.0073234853 0.016727269 0.03369819 0.011233029
0.04004198 0.077541046 -0.013853815 0.05217135 -0.0395559 0.016158437 0.030258572 -0.007970582
-0.063205115 -0.016903771 -0.106102765 -0.0025956924 -0.12807457 0.0921264 0.09824228 0.06595431
0.11241195 0.005387833 -0.072939284 0.096124895 -0.055213884 -0.10118199 -0.02030796 -0.054033246
0.12708946 0.030799003 0.13879317 0.06552009 -0.017043319 0.020423532 0.058080018 -0.03738323
-0.13820992 0.0013532948 0.093827285 0.07462033 0.03442099 0.080111206 -0.024031868 0.08246669
-0.025818773 -0.082313694 0.018385956 0.007719826 0.03410602 -0.0656316 -0.040131122 0.08189516
-0.05947828 -0.14108467 0.0524947 0.032668795 -0.18923719 -0.036383327 0.06851593 -0.088453315
-0.0006969729 -0.0016350183 0.0077175964 -0.051173333 0.058318567 0.050452642 0.0054996996 -0.0187585
0.13655654 -0.020239374 -0.16479339 -0.045250334 -0.028805172 0.02587392 0.030718278 0.08857202
0.012927196 0.08335186 -0.00022092914 0.078644924 0.05069432 -0.057897538 0.036608104 0.0095105
0.059777234 0.034284744 0.032537658 0.030916655 0.010635947 -0.13639766 0.06872012 0.03999421
-0.02248087 0.018153599 -0.0054084845 0.066472754 -0.034065805 0.011994173 0.036783904 0.083091445
-0.01401753 -0.051812522 -0.02830225 0.001119139 0.032576248 -0.019848106 -0.0012335898 0.095325865
0.048146527 0.01106902 -0.06646951 -0.09400162 0.008504419 -0.1019348 0.02193809 -0.011499045
-0.06111867 -0.009526654 -0.09088633 0.02062876 -0.029263636 0.04490295 0.006825416 -0.007861866
00000000: 255f 493c e57e ae3c 3722 58bd 30a9 d53c
00000010: 3107 9a3b 4d65 373d 2c40 fc3d a43c f23c
00000020: 4f84 44bd 9ce6 95bc 0423 56bd 8294 d0bd
00000030: 86be 373d ac43 e43c 54d4 0e3d 9bef 2c3d
00000040: 522b bdbd c406 6abc 72cc d3bc 331e 833d
00000050: c15c a8bd 1573 ab3c 2580 70bd 1f64 fd3b
00000060: e1d4 96bc 0084 32bd a305 48bd 3226 5a3c
00000070: cd7c 54bd 8c26 6fbc c0b1 97bd fd92 86bd
00000080: 51d4 57ba 7414 68bc 052c 9a3d 4084 5f3c
00000090: 7ee9 4a3d bf81 eb3c 8fd1 afbd 2e81 fdbc
000000a0: 8cf8 05bb 4d90 4a3a afde 6ebd 6208 403d
000000b0: 1e99 d9bc 7c02 203c 2dd4 1fbd 4c18 2a3c
000000c0: 0d83 ab3d 6a31 0e3e 3f29 8cbd 684c 4cbe
000000d0: f3d1 013d f83d bdbd fe99 223c 2e11 da3b
000000e0: 04eb aabb 26be e8bc 8fd2 393d f02d bfbc
000000f0: d2b7 653c 8b16 2fbc f386 9a3d 0ab4 f73b
00000100: f21f c4bd c9af 27bd 4529 523d 4e2e 033c
00000110: d1a7 ca3c 6c95 44bd 3568 28bb 0c31 933a
00000120: 3c80 09be e097 543d 12d8 a03d ddff 513d
00000130: 51bf 073d f5d8 ec3d da1f 8a3d fb53 76bd
00000140: 9cba 8abd b5a4 133c 7164 0bbd 491e 82bd
00000150: 0cc8 c93c 7aca 373d 68b2 b13c ee14 f23d
00000160: bb1d ebbc edc5 203d 44d3 3fbd 1007 06bd
00000170: 3609 4e3d bf6c fabb c3f7 d2bd 2601 973a
00000180: 0da3 c03c bca3 3fbd 484f 2fbc 8159 2b3c
00000190: 4022 84bd 48da 91ba ba36 1c3d 8ee9 3bbd
000001a0: 8531 20bd a86e b9bd e70f 83bd 2bcf 183d
000001b0: 7304 b6bc 9519 ec3c 2570 c0bb 3cc4 893d
000001c0: 1d3a c9bd 0e33 bebd f72e a73d 7fb9 89bd
000001d0: 448f b93d 9511 8c3b 4900 bbbd d99e 853d
000001e0: 2114 31bd d1d4 493d 1876 25bd 68d2 9cbc
000001f0: 7f66 a03d f8fb 503d 4988 a6bd 0605 a23d
00000200: 7e08 40ba eaca 3bbd 3ef4 16be ae50 69bd
00000210: d9f9 ef3b a007 893c 1d07 0a3d bd0a 383c
00000220: 0f03 243d d7cd 9e3d 1dfb 62bc a0b1 553d
00000230: 5e05 22bd b35e 843c d3e0 f73c 0b97 02bc
00000240: af71 81bd c779 8abc 684c d9bd 7e1c 2abb
00000250: fb25 03be c4ac bc3d 4033 c93d 0e13 873d
00000260: 3d38 e63d 6b8c b03b 3161 95bd 21dd c43d
00000270: f427 62bd 8138 cfbd e15c a6bc f751 5dbd
00000280: bd23 023e 314e fc3c cc1f 0e3e 662f 863d
00000290: 6e9e 8bbc 404f a73c 50e5 6d3d 281f 19bd
000002a0: e786 0dbe 0a61 b13a 8528 c03d 8bd2 983d
000002b0: 06fd 0c3d 5811 a43d 7bde c4bc 4ce4 a83d
000002c0: e481 d3bc 1594 a8bd 259e 963c 98f6 fc3b
000002d0: c1b2 0b3d dc69 86bd 8860 24bd a6b8 a73d
000002e0: 7f9f 73bd 8078 10be af04 573d b7cf 053d
000002f0: 65c7 41be af06 15bd 1452 8c3d 0327 b5bd
00000300: 0fb5 36ba 1c4e d6ba e4e3 fc3b 219b 51bd
00000310: 73df 6e3d 6ea7 4e3d d336 b43b 6dab 99bc
00000320: 7ad5 0b3e 0bcd a5bc 99bf 28be 6a58 39bd
00000330: d3f8 ebbc 8bf5 d33c e6a4 fb3c 3f65 b53d
00000340: 97cc 533c 61b4 aa3d 37a9 67b9 9710 a13d
00000350: d9a4 4f3d f825 6dbd 61f2 153d eed1 1b3c
00000360: f9d8 743d 296e 0c3d 3546 053d ed44 fd3c
00000370: 6542 2e3c d4ab 0bbe 22bd 8c3d f8d0 233d
00000380: cd29 b8bc dbb6 943c a839 b1bb de22 883d
00000390: 9688 0bbd 3583 443c b8aa 163d d92b aa3d
000003a0: c8a9 65bc 5e39 54bd 1fda e7bc 13b0 923a
000003b0: ac6e 053d 7f98 a2bc 68b0 a1ba 353a c33d
000003c0: 4b35 453d d65a 353c 2b21 88bd ec83 c0bd
000003d0: 1e56 0b3c 31c3 d0bd 82b7 b33c 7e66 3cbc
000003e0: 9257 7abd af15 1cbc 9d22 babd a5fd a83c
000003f0: 4bba efbc 28ec 373d bda7 df3b 0ecf 00bc

conv3.bias f4 [32]
0.04318763 -0.029026864 0.03832923 0.03709114 0.04663511 -0.036573123 -0.041016795 0.03728133
-0.0024890767 -0.037476156 -0.034437135 -0.03753101 -0.11751574 0.039916966 0.03729483 0.038652092
-0.030911896 0.03821831 -0.038835745 0.036391348 0.038542822 0.03856605 -0.041661162 -0.037401065
0.040758274 -0.037703633 0.0289111 -0.042114507 0.087785535 -0.042937357 0.036852967 -0.03698067
00000000: 83e5 303d bfc9 edbc 1cff 1c3d e1ec 173d
00000010: 7504 3f3d b3cd 15bd 3a01 28bd 4fb4 183d
00000020: c71f 23bb 9980 19bd f40d 0dbd 1eba 19bd
00000030: 18ac f0bd f97f 233d 77c2 183d a851 1e3d
00000040: f23a fdbc cd8a 1c3d 3b12 1fbd 180f 153d
00000050: 14df 1d3d 6ff7 1d3d e5a4 2abd dc31 19bd
00000060: 26f2 263d 206f 1abd f9d6 ec3c 4380 2cbd
00000070: e7c8 b33d 15df 2fbd 23f3 163d 0b79 17bd

out_conv.weight f4 [3, 32, 1, 1]
0.15208082 -0.12481818 0.5101517 0.5252717 0.10384249 -0.111296095 -0.667633 0.5237243
0.064777285 -0.33278677 -0.2037679 -0.371268 -0.05189038 0.2801107 0.21224582 0.52834755
-0.08970467 0.3545739 -0.5600108 0.20295888 0.30599514 0.5800715 -0.2985032 -0.20082116
0.109713316 -0.07338509 0.113779955 -0.295105 0.35009536 -0.059542555 0.2730704 -0.3507874
0.21591574 0.2093683 -0.124803744 -0.23890957 0.6196573 0.24684158 0.19943818 -0.007098571
-0.76825947 0.0068407543 0.44323248 0.09337694 -0.028095912 0.17772618 -0.1763012 -0.34073386
0.090003885 0.4230068 0.08749873 -0.16498859 -0.041031893 0.19291736 -0.119864725 0.36038187
0.01522885 0.16815631 -0.5110993 -0.52521944 0.42957512 -0.24301833 0.05609743 0.12036452
0.7008588 -0.0904925 0.22581568 -0.021588512 -0.3153359 -0.0071527315 -0.40085426 -0.26111066
-0.32468012 0.055708382 0.3582995 0.12015733 0.70161253 0.026668765 -0.1817714 0.079699226
-0.1738679 -0.6896219 0.18012616 0.32292724 -0.34804046 -0.15014055 -0.33670515 -0.49964243
-0.3276149 -0.5416855 0.4429812 -0.22731458 0.037403017 0.5797105 -0.08815952 0.058176156
00000000: 13bb 1b3e ada0 ffbd 4d99 023f 3578 063f
00000010: 5fab d43d 35ef e3bd ffe9 2abf cc12 063f
00000020: f4a9 843d 0763 aabe 88a8 50be d716 bebe
00000030: 028b 54bd ab6a 8f3e f856 593e c941 073f
00000040: 15b7 b7bd b68a b53e de5c 0fbf 74d4 4f3e
00000050: 65ab 9c3e 917f 143f 69d5 98be 10a4 4dbe
00000060: 60b1 e03d ec4a 96bd 7705 e93d 0118 97be
00000070: b33f b33e e5e2 73bd e2cf 8b3e 689a b3be
00000080: 0419 5d3e a564 563e 1b99 ffbd b6a4 74be
00000090: dca1 1e3f 0ac4 7c3e 8639 4c3e 219b e8bb
000000a0: a7ac 44bf 6828 e03b 5eef e23e 693c bf3d
000000b0: 6629 e6bc dafd 353e 4d88 34be ab74 aebe
000000c0: f553 b83d 5994 d83e 8932 b33d c5f2 28be
000000d0: 0f11 28bd 218c 453e a37b f5bd f983 b83e
000000e0: 6d82 793c 2b31 2c3e 67d7 02bf c874 06bf
000000f0: 45f1 db3e ccd9 78be 6bc6 653d ac81 f63d
00000100: 7b6b 333f 2254 b9bd 3a3c 673e 64da b0bc
00000110: b573 a1be 7661 eabb c53c cdbe 4cb0 85be
00000120: 793c a6be 792e 643d 0873 b73e 0c15 f63d
00000130: e19c 333f 7478 da3c 4822 3abe 5939 a33d
00000140: 6d0a 32be 108b 30bf fe72 383e b856 a53e
00000150: 5c32 b2be 72be 19be 9e64 acbe 22d1 ffbe
00000160: 24bd a7be e7ab 0abf 6fce e23e 27c5 68be
00000170: e833 193d e867 143f fa8c b4bd 1f4a 6e3d

out_conv.bias f4 [3]
0.037078053 0.04910302 0.0
00000000: 28df 173d 4020 493d 0000 0000
